…
I0919 17:43:49.410339 76792 net.cpp:257] The NetState phase (0) differed from the phase (1) specified by a rule in layer accuracy
I0919 17:43:49.410553 76792 net.cpp:42] Initializing net from parameters: 
name: "Oxford102_CaffeNet"
state {
  phase: TRAIN
}
layer {
  name: "data"
  type: "ImageData"
  top: "data"
  top: "label"
  include {
    phase: TRAIN
  }
  transform_param {
    mirror: true
    crop_size: 227
    mean_file: "/home/ubuntu/caffe/data/ilsvrc12/imagenet_mean.binaryproto"
  }
  image_data_param {
    source: "/home/ubuntu/git/caffe-oxford102/test.txt"
    batch_size: 50
    new_height: 256
    new_width: 256
  }
}
layer {
  name: "conv1"
  type: "Convolution"
  bottom: "data"
  top: "conv1"
  param {
    lr_mult: 1
    decay_mult: 1
  }
  param {
    lr_mult: 2
    decay_mult: 0
  }
  convolution_param {
    num_output: 96
    kernel_size: 11
    stride: 4
    weight_filler {
      type: "gaussian"
      std: 0.01
    }
    bias_filler {
      type: "constant"
      value: 0
    }
  }
}
layer {
  name: "relu1"
  type: "ReLU"
  bottom: "conv1"
  top: "conv1"
}
layer {
  name: "pool1"
  type: "Pooling"
  bottom: "conv1"
  top: "pool1"
  pooling_param {
    pool: MAX
    kernel_size: 3
    stride: 2
  }
}
layer {
  name: "norm1"
  type: "LRN"
  bottom: "pool1"
  top: "norm1"
  lrn_param {
    local_size: 5
    alpha: 0.0001
    beta: 0.75
  }
}
layer {
  name: "conv2"
  type: "Convolution"
  bottom: "norm1"
  top: "conv2"
  param {
    lr_mult: 1
    decay_mult: 1
  }
  param {
    lr_mult: 2
    decay_mult: 0
  }
  convolution_param {
    num_output: 256
    pad: 2
    kernel_size: 5
    group: 2
    weight_filler {
      type: "gaussian"
      std: 0.01
    }
    bias_filler {
      type: "constant"
      value: 1
    }
  }
}
layer {
  name: "relu2"
  type: "ReLU"
  bottom: "conv2"
  top: "conv2"
}
layer {
  name: "pool2"
  type: "Pooling"
  bottom: "conv2"
  top: "pool2"
  pooling_param {
    pool: MAX
    kernel_size: 3
    stride: 2
  }
}
layer {
  name: "norm2"
  type: "LRN"
  bottom: "pool2"
  top: "norm2"
  lrn_param {
    local_size: 5
    alpha: 0.0001
    beta: 0.75
  }
}
layer {
  name: "conv3"
  type: "Convolution"
  bottom: "norm2"
  top: "conv3"
  param {
    lr_mult: 1
    decay_mult: 1
  }
  param {
    lr_mult: 2
    decay_mult: 0
  }
  convolution_param {
    num_output: 384
    pad: 1
    kernel_size: 3
    weight_filler {
      type: "gaussian"
      std: 0.01
    }
    bias_filler {
      type: "constant"
      value: 0
    }
  }
}
layer {
  name: "relu3"
  type: "ReLU"
  bottom: "conv3"
  top: "conv3"
}
layer {
  name: "conv4"
  type: "Convolution"
  bottom: "conv3"
  top: "conv4"
  param {
    lr_mult: 1
    decay_mult: 1
  }
  param {
    lr_mult: 2
    decay_mult: 0
  }
  convolution_param {
    num_output: 384
    pad: 1
    kernel_size: 3
    group: 2
    weight_filler {
      type: "gaussian"
      std: 0.01
    }
    bias_filler {
      type: "constant"
      value: 1
    }
  }
}
layer {
  name: "relu4"
  type: "ReLU"
  bottom: "conv4"
  top: "conv4"
}
layer {
  name: "conv5"
  type: "Convolution"
  bottom: "conv4"
  top: "conv5"
  param {
    lr_mult: 1
    decay_mult: 1
  }
  param {
    lr_mult: 2
    decay_mult: 0
  }
  convolution_param {
    num_output: 256
    pad: 1
    kernel_size: 3
    group: 2
    weight_filler {
      type: "gaussian"
      std: 0.01
    }
    bias_filler {
      type: "constant"
      value: 1
    }
  }
}
layer {
  name: "relu5"
  type: "ReLU"
  bottom: "conv5"
  top: "conv5"
}
layer {
  name: "pool5"
  type: "Pooling"
  bottom: "conv5"
  top: "pool5"
  pooling_param {
    pool: MAX
    kernel_size: 3
    stride: 2
  }
}
layer {
  name: "fc6"
  type: "InnerProduct"
  bottom: "pool5"
  top: "fc6"
  param {
    lr_mult: 1
    decay_mult: 1
  }
  param {
    lr_mult: 2
    decay_mult: 0
  }
  inner_product_param {
    num_output: 4096
    weight_filler {
      type: "gaussian"
      std: 0.005
    }
    bias_filler {
      type: "constant"
      value: 1
    }
  }
}
layer {
  name: "relu6"
  type: "ReLU"
  bottom: "fc6"
  top: "fc6"
}
layer {
  name: "drop6"
  type: "Dropout"
  bottom: "fc6"
  top: "fc6"
  dropout_param {
    dropout_ratio: 0.5
  }
}
layer {
  name: "fc7"
  type: "InnerProduct"
  bottom: "fc6"
  top: "fc7"
  param {
    lr_mult: 1
    decay_mult: 1
  }
  param {
    lr_mult: 2
    decay_mult: 0
  }
  inner_product_param {
    num_output: 4096
    weight_filler {
      type: "gaussian"
      std: 0.005
    }
    bias_filler {
      type: "constant"
      value: 1
    }
  }
}
layer {
  name: "relu7"
  type: "ReLU"
  bottom: "fc7"
  top: "fc7"
}
layer {
  name: "drop7"
  type: "Dropout"
  bottom: "fc7"
  top: "fc7"
  dropout_param {
    dropout_ratio: 0.5
  }
}
layer {
  name: "fc8_oxford_102"
  type: "InnerProduct"
  bottom: "fc7"
  top: "fc8_oxford_102"
  param {
    lr_mult: 10
    decay_mult: 1
  }
  param {
    lr_mult: 20
    decay_mult: 0
  }
  inner_product_param {
    num_output: 102
    weight_filler {
      type: "gaussian"
      std: 0.01
    }
    bias_filler {
      type: "constant"
      value: 0
    }
  }
}
layer {
  name: "loss"
  type: "SoftmaxWithLoss"
  bottom: "fc8_oxford_102"
  bottom: "label"
}
I0919 17:43:49.410694 76792 layer_factory.hpp:74] Creating layer data
I0919 17:43:49.413143 76792 net.cpp:84] Creating Layer data
I0919 17:43:49.413163 76792 net.cpp:338] data -> data
I0919 17:43:49.413205 76792 net.cpp:338] data -> label
I0919 17:43:49.413224 76792 net.cpp:113] Setting up data
I0919 17:43:49.413236 76792 image_data_layer.cpp:36] Opening file /home/ubuntu/git/caffe-oxford102/test.txt
I0919 17:43:49.418696 76792 image_data_layer.cpp:51] A total of 6149 images.
I0919 17:43:49.437613 76792 image_data_layer.cpp:80] output data size: 50,3,227,227
I0919 17:43:49.437645 76792 data_transformer.cpp:22] Loading mean file from: /home/ubuntu/caffe/data/ilsvrc12/imagenet_mean.binaryproto
I0919 17:43:49.456693 76792 net.cpp:120] Top shape: 50 3 227 227 (7729350)
I0919 17:43:49.456737 76792 net.cpp:120] Top shape: 50 (50)
I0919 17:43:49.456748 76792 layer_factory.hpp:74] Creating layer conv1
I0919 17:43:49.456778 76792 net.cpp:84] Creating Layer conv1
I0919 17:43:49.456787 76792 net.cpp:380] conv1 <- data
I0919 17:43:49.456804 76792 net.cpp:338] conv1 -> conv1
I0919 17:43:49.456820 76792 net.cpp:113] Setting up conv1
I0919 17:43:49.693203 76792 net.cpp:120] Top shape: 50 96 55 55 (14520000)
I0919 17:43:49.693289 76792 layer_factory.hpp:74] Creating layer relu1
I0919 17:43:49.693323 76792 net.cpp:84] Creating Layer relu1
I0919 17:43:49.693338 76792 net.cpp:380] relu1 <- conv1
I0919 17:43:49.693356 76792 net.cpp:327] relu1 -> conv1 (in-place)
I0919 17:43:49.693377 76792 net.cpp:113] Setting up relu1
I0919 17:43:49.693681 76792 net.cpp:120] Top shape: 50 96 55 55 (14520000)
I0919 17:43:49.693699 76792 layer_factory.hpp:74] Creating layer pool1
I0919 17:43:49.693725 76792 net.cpp:84] Creating Layer pool1
I0919 17:43:49.693738 76792 net.cpp:380] pool1 <- conv1
I0919 17:43:49.693758 76792 net.cpp:338] pool1 -> pool1
I0919 17:43:49.693776 76792 net.cpp:113] Setting up pool1
I0919 17:43:49.693898 76792 net.cpp:120] Top shape: 50 96 27 27 (3499200)
I0919 17:43:49.693917 76792 layer_factory.hpp:74] Creating layer norm1
I0919 17:43:49.693956 76792 net.cpp:84] Creating Layer norm1
I0919 17:43:49.693970 76792 net.cpp:380] norm1 <- pool1
I0919 17:43:49.694005 76792 net.cpp:338] norm1 -> norm1
I0919 17:43:49.694025 76792 net.cpp:113] Setting up norm1
I0919 17:43:49.694047 76792 net.cpp:120] Top shape: 50 96 27 27 (3499200)
I0919 17:43:49.694061 76792 layer_factory.hpp:74] Creating layer conv2
I0919 17:43:49.694084 76792 net.cpp:84] Creating Layer conv2
I0919 17:43:49.694097 76792 net.cpp:380] conv2 <- norm1
I0919 17:43:49.694108 76792 net.cpp:338] conv2 -> conv2
I0919 17:43:49.694119 76792 net.cpp:113] Setting up conv2
I0919 17:43:49.704493 76792 net.cpp:120] Top shape: 50 256 27 27 (9331200)
I0919 17:43:49.704515 76792 layer_factory.hpp:74] Creating layer relu2
I0919 17:43:49.704526 76792 net.cpp:84] Creating Layer relu2
I0919 17:43:49.704534 76792 net.cpp:380] relu2 <- conv2
I0919 17:43:49.704543 76792 net.cpp:327] relu2 -> conv2 (in-place)
I0919 17:43:49.704552 76792 net.cpp:113] Setting up relu2
I0919 17:43:49.704603 76792 net.cpp:120] Top shape: 50 256 27 27 (9331200)
I0919 17:43:49.704612 76792 layer_factory.hpp:74] Creating layer pool2
I0919 17:43:49.704623 76792 net.cpp:84] Creating Layer pool2
I0919 17:43:49.704629 76792 net.cpp:380] pool2 <- conv2
I0919 17:43:49.704638 76792 net.cpp:338] pool2 -> pool2
I0919 17:43:49.704648 76792 net.cpp:113] Setting up pool2
I0919 17:43:49.704797 76792 net.cpp:120] Top shape: 50 256 13 13 (2163200)
I0919 17:43:49.704808 76792 layer_factory.hpp:74] Creating layer norm2
I0919 17:43:49.704823 76792 net.cpp:84] Creating Layer norm2
I0919 17:43:49.704828 76792 net.cpp:380] norm2 <- pool2
I0919 17:43:49.704838 76792 net.cpp:338] norm2 -> norm2
I0919 17:43:49.704848 76792 net.cpp:113] Setting up norm2
I0919 17:43:49.704860 76792 net.cpp:120] Top shape: 50 256 13 13 (2163200)
I0919 17:43:49.704867 76792 layer_factory.hpp:74] Creating layer conv3
I0919 17:43:49.704879 76792 net.cpp:84] Creating Layer conv3
I0919 17:43:49.704886 76792 net.cpp:380] conv3 <- norm2
I0919 17:43:49.704896 76792 net.cpp:338] conv3 -> conv3
I0919 17:43:49.704907 76792 net.cpp:113] Setting up conv3
I0919 17:43:49.734025 76792 net.cpp:120] Top shape: 50 384 13 13 (3244800)
I0919 17:43:49.734045 76792 layer_factory.hpp:74] Creating layer relu3
I0919 17:43:49.734056 76792 net.cpp:84] Creating Layer relu3
I0919 17:43:49.734063 76792 net.cpp:380] relu3 <- conv3
I0919 17:43:49.734073 76792 net.cpp:327] relu3 -> conv3 (in-place)
I0919 17:43:49.734081 76792 net.cpp:113] Setting up relu3
I0919 17:43:49.734136 76792 net.cpp:120] Top shape: 50 384 13 13 (3244800)
I0919 17:43:49.734145 76792 layer_factory.hpp:74] Creating layer conv4
I0919 17:43:49.734158 76792 net.cpp:84] Creating Layer conv4
I0919 17:43:49.734165 76792 net.cpp:380] conv4 <- conv3
I0919 17:43:49.734175 76792 net.cpp:338] conv4 -> conv4
I0919 17:43:49.734185 76792 net.cpp:113] Setting up conv4
I0919 17:43:49.755851 76792 net.cpp:120] Top shape: 50 384 13 13 (3244800)
I0919 17:43:49.755872 76792 layer_factory.hpp:74] Creating layer relu4
I0919 17:43:49.755882 76792 net.cpp:84] Creating Layer relu4
I0919 17:43:49.755889 76792 net.cpp:380] relu4 <- conv4
I0919 17:43:49.755898 76792 net.cpp:327] relu4 -> conv4 (in-place)
I0919 17:43:49.755908 76792 net.cpp:113] Setting up relu4
I0919 17:43:49.755960 76792 net.cpp:120] Top shape: 50 384 13 13 (3244800)
I0919 17:43:49.755970 76792 layer_factory.hpp:74] Creating layer conv5
I0919 17:43:49.755982 76792 net.cpp:84] Creating Layer conv5
I0919 17:43:49.755988 76792 net.cpp:380] conv5 <- conv4
I0919 17:43:49.755998 76792 net.cpp:338] conv5 -> conv5
I0919 17:43:49.756009 76792 net.cpp:113] Setting up conv5
I0919 17:43:49.771709 76792 net.cpp:120] Top shape: 50 256 13 13 (2163200)
I0919 17:43:49.771734 76792 layer_factory.hpp:74] Creating layer relu5
I0919 17:43:49.771746 76792 net.cpp:84] Creating Layer relu5
I0919 17:43:49.771754 76792 net.cpp:380] relu5 <- conv5
I0919 17:43:49.771764 76792 net.cpp:327] relu5 -> conv5 (in-place)
I0919 17:43:49.771772 76792 net.cpp:113] Setting up relu5
I0919 17:43:49.771844 76792 net.cpp:120] Top shape: 50 256 13 13 (2163200)
I0919 17:43:49.771855 76792 layer_factory.hpp:74] Creating layer pool5
I0919 17:43:49.771875 76792 net.cpp:84] Creating Layer pool5
I0919 17:43:49.771883 76792 net.cpp:380] pool5 <- conv5
I0919 17:43:49.771893 76792 net.cpp:338] pool5 -> pool5
I0919 17:43:49.771903 76792 net.cpp:113] Setting up pool5
I0919 17:43:49.772047 76792 net.cpp:120] Top shape: 50 256 6 6 (460800)
I0919 17:43:49.772058 76792 layer_factory.hpp:74] Creating layer fc6
I0919 17:43:49.772083 76792 net.cpp:84] Creating Layer fc6
I0919 17:43:49.772090 76792 net.cpp:380] fc6 <- pool5
I0919 17:43:49.772101 76792 net.cpp:338] fc6 -> fc6
I0919 17:43:49.772114 76792 net.cpp:113] Setting up fc6
I0919 17:43:50.993620 76792 net.cpp:120] Top shape: 50 4096 (204800)
I0919 17:43:50.993719 76792 layer_factory.hpp:74] Creating layer relu6
I0919 17:43:50.993752 76792 net.cpp:84] Creating Layer relu6
I0919 17:43:50.993772 76792 net.cpp:380] relu6 <- fc6
I0919 17:43:50.993791 76792 net.cpp:327] relu6 -> fc6 (in-place)
I0919 17:43:50.993804 76792 net.cpp:113] Setting up relu6
I0919 17:43:50.994274 76792 net.cpp:120] Top shape: 50 4096 (204800)
I0919 17:43:50.994287 76792 layer_factory.hpp:74] Creating layer drop6
I0919 17:43:50.994309 76792 net.cpp:84] Creating Layer drop6
I0919 17:43:50.994316 76792 net.cpp:380] drop6 <- fc6
I0919 17:43:50.994325 76792 net.cpp:327] drop6 -> fc6 (in-place)
I0919 17:43:50.994334 76792 net.cpp:113] Setting up drop6
I0919 17:43:50.994352 76792 net.cpp:120] Top shape: 50 4096 (204800)
I0919 17:43:50.994359 76792 layer_factory.hpp:74] Creating layer fc7
I0919 17:43:50.994379 76792 net.cpp:84] Creating Layer fc7
I0919 17:43:50.994387 76792 net.cpp:380] fc7 <- fc6
I0919 17:43:50.994400 76792 net.cpp:338] fc7 -> fc7
I0919 17:43:50.994415 76792 net.cpp:113] Setting up fc7
I0919 17:43:51.537214 76792 net.cpp:120] Top shape: 50 4096 (204800)
I0919 17:43:51.537278 76792 layer_factory.hpp:74] Creating layer relu7
I0919 17:43:51.537305 76792 net.cpp:84] Creating Layer relu7
I0919 17:43:51.537315 76792 net.cpp:380] relu7 <- fc7
I0919 17:43:51.537328 76792 net.cpp:327] relu7 -> fc7 (in-place)
I0919 17:43:51.537340 76792 net.cpp:113] Setting up relu7
I0919 17:43:51.537461 76792 net.cpp:120] Top shape: 50 4096 (204800)
I0919 17:43:51.537470 76792 layer_factory.hpp:74] Creating layer drop7
I0919 17:43:51.537487 76792 net.cpp:84] Creating Layer drop7
I0919 17:43:51.537494 76792 net.cpp:380] drop7 <- fc7
I0919 17:43:51.537503 76792 net.cpp:327] drop7 -> fc7 (in-place)
I0919 17:43:51.537513 76792 net.cpp:113] Setting up drop7
I0919 17:43:51.537523 76792 net.cpp:120] Top shape: 50 4096 (204800)
I0919 17:43:51.537528 76792 layer_factory.hpp:74] Creating layer fc8_oxford_102
I0919 17:43:51.537540 76792 net.cpp:84] Creating Layer fc8_oxford_102
I0919 17:43:51.537546 76792 net.cpp:380] fc8_oxford_102 <- fc7
I0919 17:43:51.537555 76792 net.cpp:338] fc8_oxford_102 -> fc8_oxford_102
I0919 17:43:51.537567 76792 net.cpp:113] Setting up fc8_oxford_102
I0919 17:43:51.551332 76792 net.cpp:120] Top shape: 50 102 (5100)
I0919 17:43:51.551350 76792 layer_factory.hpp:74] Creating layer loss
I0919 17:43:51.551376 76792 net.cpp:84] Creating Layer loss
I0919 17:43:51.551384 76792 net.cpp:380] loss <- fc8_oxford_102
I0919 17:43:51.551393 76792 net.cpp:380] loss <- label
I0919 17:43:51.551409 76792 net.cpp:338] loss -> (automatic)
I0919 17:43:51.551416 76792 net.cpp:113] Setting up loss
I0919 17:43:51.551430 76792 layer_factory.hpp:74] Creating layer loss
…
I0919 17:43:51.552999 76792 net.cpp:257] The NetState phase (1) differed from the phase (0) specified by a rule in layer data
I0919 17:43:51.553252 76792 net.cpp:42] Initializing net from parameters: 
name: "Oxford102_CaffeNet"
state {
  phase: TEST
}
layer {
  name: "data"
  type: "ImageData"
  top: "data"
  top: "label"
  include {
    phase: TEST
  }
  transform_param {
    mirror: false
    crop_size: 227
    mean_file: "/home/ubuntu/caffe/data/ilsvrc12/imagenet_mean.binaryproto"
  }
  image_data_param {
    source: "/home/ubuntu/git/caffe-oxford102/train.txt"
    batch_size: 50
    new_height: 256
    new_width: 256
  }
}
layer {
  name: "conv1"
  type: "Convolution"
  bottom: "data"
  top: "conv1"
  param {
    lr_mult: 1
    decay_mult: 1
  }
  param {
    lr_mult: 2
    decay_mult: 0
  }
  convolution_param {
    num_output: 96
    kernel_size: 11
    stride: 4
    weight_filler {
      type: "gaussian"
      std: 0.01
    }
    bias_filler {
      type: "constant"
      value: 0
    }
  }
}
layer {
  name: "relu1"
  type: "ReLU"
  bottom: "conv1"
  top: "conv1"
}
layer {
  name: "pool1"
  type: "Pooling"
  bottom: "conv1"
  top: "pool1"
  pooling_param {
    pool: MAX
    kernel_size: 3
    stride: 2
  }
}
layer {
  name: "norm1"
  type: "LRN"
  bottom: "pool1"
  top: "norm1"
  lrn_param {
    local_size: 5
    alpha: 0.0001
    beta: 0.75
  }
}
layer {
  name: "conv2"
  type: "Convolution"
  bottom: "norm1"
  top: "conv2"
  param {
    lr_mult: 1
    decay_mult: 1
  }
  param {
    lr_mult: 2
    decay_mult: 0
  }
  convolution_param {
    num_output: 256
    pad: 2
    kernel_size: 5
    group: 2
    weight_filler {
      type: "gaussian"
      std: 0.01
    }
    bias_filler {
      type: "constant"
      value: 1
    }
  }
}
layer {
  name: "relu2"
  type: "ReLU"
  bottom: "conv2"
  top: "conv2"
}
layer {
  name: "pool2"
  type: "Pooling"
  bottom: "conv2"
  top: "pool2"
  pooling_param {
    pool: MAX
    kernel_size: 3
    stride: 2
  }
}
layer {
  name: "norm2"
  type: "LRN"
  bottom: "pool2"
  top: "norm2"
  lrn_param {
    local_size: 5
    alpha: 0.0001
    beta: 0.75
  }
}
layer {
  name: "conv3"
  type: "Convolution"
  bottom: "norm2"
  top: "conv3"
  param {
    lr_mult: 1
    decay_mult: 1
  }
  param {
    lr_mult: 2
    decay_mult: 0
  }
  convolution_param {
    num_output: 384
    pad: 1
    kernel_size: 3
    weight_filler {
      type: "gaussian"
      std: 0.01
    }
    bias_filler {
      type: "constant"
      value: 0
    }
  }
}
layer {
  name: "relu3"
  type: "ReLU"
  bottom: "conv3"
  top: "conv3"
}
layer {
  name: "conv4"
  type: "Convolution"
  bottom: "conv3"
  top: "conv4"
  param {
    lr_mult: 1
    decay_mult: 1
  }
  param {
    lr_mult: 2
    decay_mult: 0
  }
  convolution_param {
    num_output: 384
    pad: 1
    kernel_size: 3
    group: 2
    weight_filler {
      type: "gaussian"
      std: 0.01
    }
    bias_filler {
      type: "constant"
      value: 1
    }
  }
}
layer {
  name: "relu4"
  type: "ReLU"
  bottom: "conv4"
  top: "conv4"
}
layer {
  name: "conv5"
  type: "Convolution"
  bottom: "conv4"
  top: "conv5"
  param {
    lr_mult: 1
    decay_mult: 1
  }
  param {
    lr_mult: 2
    decay_mult: 0
  }
  convolution_param {
    num_output: 256
    pad: 1
    kernel_size: 3
    group: 2
    weight_filler {
      type: "gaussian"
      std: 0.01
    }
    bias_filler {
      type: "constant"
      value: 1
    }
  }
}
layer {
  name: "relu5"
  type: "ReLU"
  bottom: "conv5"
  top: "conv5"
}
layer {
  name: "pool5"
  type: "Pooling"
  bottom: "conv5"
  top: "pool5"
  pooling_param {
    pool: MAX
    kernel_size: 3
    stride: 2
  }
}
layer {
  name: "fc6"
  type: "InnerProduct"
  bottom: "pool5"
  top: "fc6"
  param {
    lr_mult: 1
    decay_mult: 1
  }
  param {
    lr_mult: 2
    decay_mult: 0
  }
  inner_product_param {
    num_output: 4096
    weight_filler {
      type: "gaussian"
      std: 0.005
    }
    bias_filler {
      type: "constant"
      value: 1
    }
  }
}
layer {
  name: "relu6"
  type: "ReLU"
  bottom: "fc6"
  top: "fc6"
}
layer {
  name: "drop6"
  type: "Dropout"
  bottom: "fc6"
  top: "fc6"
  dropout_param {
    dropout_ratio: 0.5
  }
}
layer {
  name: "fc7"
  type: "InnerProduct"
  bottom: "fc6"
  top: "fc7"
  param {
    lr_mult: 1
    decay_mult: 1
  }
  param {
    lr_mult: 2
    decay_mult: 0
  }
  inner_product_param {
    num_output: 4096
    weight_filler {
      type: "gaussian"
      std: 0.005
    }
    bias_filler {
      type: "constant"
      value: 1
    }
  }
}
layer {
  name: "relu7"
  type: "ReLU"
  bottom: "fc7"
  top: "fc7"
}
layer {
  name: "drop7"
  type: "Dropout"
  bottom: "fc7"
  top: "fc7"
  dropout_param {
    dropout_ratio: 0.5
  }
}
layer {
  name: "fc8_oxford_102"
  type: "InnerProduct"
  bottom: "fc7"
  top: "fc8_oxford_102"
  param {
    lr_mult: 10
    decay_mult: 1
  }
  param {
    lr_mult: 20
    decay_mult: 0
  }
  inner_product_param {
    num_output: 102
    weight_filler {
      type: "gaussian"
      std: 0.01
    }
    bias_filler {
      type: "constant"
      value: 0
    }
  }
}
layer {
  name: "loss"
  type: "SoftmaxWithLoss"
  bottom: "fc8_oxford_102"
  bottom: "label"
}
layer {
  name: "accuracy"
  type: "Accuracy"
  bottom: "fc8_oxford_102"
  bottom: "label"
  top: "accuracy"
  include {
    phase: TEST
  }
}
I0919 17:43:51.553416 76792 layer_factory.hpp:74] Creating layer data
I0919 17:43:51.553436 76792 net.cpp:84] Creating Layer data
I0919 17:43:51.553445 76792 net.cpp:338] data -> data
I0919 17:43:51.553457 76792 net.cpp:338] data -> label
I0919 17:43:51.553467 76792 net.cpp:113] Setting up data
I0919 17:43:51.553475 76792 image_data_layer.cpp:36] Opening file /home/ubuntu/git/caffe-oxford102/train.txt
I0919 17:43:51.555707 76792 image_data_layer.cpp:51] A total of 1020 images.
I0919 17:43:51.560605 76792 image_data_layer.cpp:80] output data size: 50,3,227,227
I0919 17:43:51.560629 76792 data_transformer.cpp:22] Loading mean file from: /home/ubuntu/caffe/data/ilsvrc12/imagenet_mean.binaryproto
I0919 17:43:51.569798 76792 net.cpp:120] Top shape: 50 3 227 227 (7729350)
I0919 17:43:51.569847 76792 net.cpp:120] Top shape: 50 (50)
I0919 17:43:51.569859 76792 layer_factory.hpp:74] Creating layer label_data_1_split
I0919 17:43:51.569893 76792 net.cpp:84] Creating Layer label_data_1_split
I0919 17:43:51.569913 76792 net.cpp:380] label_data_1_split <- label
I0919 17:43:51.569926 76792 net.cpp:338] label_data_1_split -> label_data_1_split_0
I0919 17:43:51.569946 76792 net.cpp:338] label_data_1_split -> label_data_1_split_1
I0919 17:43:51.569959 76792 net.cpp:113] Setting up label_data_1_split
I0919 17:43:51.569977 76792 net.cpp:120] Top shape: 50 (50)
I0919 17:43:51.569988 76792 net.cpp:120] Top shape: 50 (50)
I0919 17:43:51.569994 76792 layer_factory.hpp:74] Creating layer conv1
I0919 17:43:51.570018 76792 net.cpp:84] Creating Layer conv1
I0919 17:43:51.570025 76792 net.cpp:380] conv1 <- data
I0919 17:43:51.570035 76792 net.cpp:338] conv1 -> conv1
I0919 17:43:51.570051 76792 net.cpp:113] Setting up conv1
I0919 17:43:51.571768 76792 net.cpp:120] Top shape: 50 96 55 55 (14520000)
I0919 17:43:51.571791 76792 layer_factory.hpp:74] Creating layer relu1
I0919 17:43:51.571804 76792 net.cpp:84] Creating Layer relu1
I0919 17:43:51.571810 76792 net.cpp:380] relu1 <- conv1
I0919 17:43:51.571818 76792 net.cpp:327] relu1 -> conv1 (in-place)
I0919 17:43:51.571827 76792 net.cpp:113] Setting up relu1
I0919 17:43:51.571967 76792 net.cpp:120] Top shape: 50 96 55 55 (14520000)
I0919 17:43:51.571981 76792 layer_factory.hpp:74] Creating layer pool1
I0919 17:43:51.571995 76792 net.cpp:84] Creating Layer pool1
I0919 17:43:51.572001 76792 net.cpp:380] pool1 <- conv1
I0919 17:43:51.572010 76792 net.cpp:338] pool1 -> pool1
I0919 17:43:51.572021 76792 net.cpp:113] Setting up pool1
I0919 17:43:51.572078 76792 net.cpp:120] Top shape: 50 96 27 27 (3499200)
I0919 17:43:51.572088 76792 layer_factory.hpp:74] Creating layer norm1
I0919 17:43:51.572098 76792 net.cpp:84] Creating Layer norm1
I0919 17:43:51.572104 76792 net.cpp:380] norm1 <- pool1
I0919 17:43:51.572113 76792 net.cpp:338] norm1 -> norm1
I0919 17:43:51.572123 76792 net.cpp:113] Setting up norm1
I0919 17:43:51.572132 76792 net.cpp:120] Top shape: 50 96 27 27 (3499200)
I0919 17:43:51.572139 76792 layer_factory.hpp:74] Creating layer conv2
I0919 17:43:51.572149 76792 net.cpp:84] Creating Layer conv2
I0919 17:43:51.572155 76792 net.cpp:380] conv2 <- norm1
I0919 17:43:51.572165 76792 net.cpp:338] conv2 -> conv2
I0919 17:43:51.572175 76792 net.cpp:113] Setting up conv2
I0919 17:43:51.582747 76792 net.cpp:120] Top shape: 50 256 27 27 (9331200)
I0919 17:43:51.582769 76792 layer_factory.hpp:74] Creating layer relu2
I0919 17:43:51.582779 76792 net.cpp:84] Creating Layer relu2
I0919 17:43:51.582787 76792 net.cpp:380] relu2 <- conv2
I0919 17:43:51.582794 76792 net.cpp:327] relu2 -> conv2 (in-place)
I0919 17:43:51.582803 76792 net.cpp:113] Setting up relu2
I0919 17:43:51.582861 76792 net.cpp:120] Top shape: 50 256 27 27 (9331200)
I0919 17:43:51.582870 76792 layer_factory.hpp:74] Creating layer pool2
I0919 17:43:51.582883 76792 net.cpp:84] Creating Layer pool2
I0919 17:43:51.582890 76792 net.cpp:380] pool2 <- conv2
I0919 17:43:51.582898 76792 net.cpp:338] pool2 -> pool2
I0919 17:43:51.582908 76792 net.cpp:113] Setting up pool2
I0919 17:43:51.582965 76792 net.cpp:120] Top shape: 50 256 13 13 (2163200)
I0919 17:43:51.582974 76792 layer_factory.hpp:74] Creating layer norm2
I0919 17:43:51.582986 76792 net.cpp:84] Creating Layer norm2
I0919 17:43:51.582993 76792 net.cpp:380] norm2 <- pool2
I0919 17:43:51.583001 76792 net.cpp:338] norm2 -> norm2
I0919 17:43:51.583010 76792 net.cpp:113] Setting up norm2
I0919 17:43:51.583019 76792 net.cpp:120] Top shape: 50 256 13 13 (2163200)
I0919 17:43:51.583026 76792 layer_factory.hpp:74] Creating layer conv3
I0919 17:43:51.583039 76792 net.cpp:84] Creating Layer conv3
I0919 17:43:51.583045 76792 net.cpp:380] conv3 <- norm2
I0919 17:43:51.583055 76792 net.cpp:338] conv3 -> conv3
I0919 17:43:51.583063 76792 net.cpp:113] Setting up conv3
I0919 17:43:51.612413 76792 net.cpp:120] Top shape: 50 384 13 13 (3244800)
I0919 17:43:51.612434 76792 layer_factory.hpp:74] Creating layer relu3
I0919 17:43:51.612445 76792 net.cpp:84] Creating Layer relu3
I0919 17:43:51.612452 76792 net.cpp:380] relu3 <- conv3
I0919 17:43:51.612471 76792 net.cpp:327] relu3 -> conv3 (in-place)
I0919 17:43:51.612489 76792 net.cpp:113] Setting up relu3
I0919 17:43:51.612648 76792 net.cpp:120] Top shape: 50 384 13 13 (3244800)
I0919 17:43:51.612661 76792 layer_factory.hpp:74] Creating layer conv4
I0919 17:43:51.612675 76792 net.cpp:84] Creating Layer conv4
I0919 17:43:51.612684 76792 net.cpp:380] conv4 <- conv3
I0919 17:43:51.612695 76792 net.cpp:338] conv4 -> conv4
I0919 17:43:51.612720 76792 net.cpp:113] Setting up conv4
I0919 17:43:51.635285 76792 net.cpp:120] Top shape: 50 384 13 13 (3244800)
I0919 17:43:51.635304 76792 layer_factory.hpp:74] Creating layer relu4
I0919 17:43:51.635318 76792 net.cpp:84] Creating Layer relu4
I0919 17:43:51.635324 76792 net.cpp:380] relu4 <- conv4
I0919 17:43:51.635332 76792 net.cpp:327] relu4 -> conv4 (in-place)
I0919 17:43:51.635341 76792 net.cpp:113] Setting up relu4
I0919 17:43:51.635411 76792 net.cpp:120] Top shape: 50 384 13 13 (3244800)
I0919 17:43:51.635427 76792 layer_factory.hpp:74] Creating layer conv5
I0919 17:43:51.635442 76792 net.cpp:84] Creating Layer conv5
I0919 17:43:51.635449 76792 net.cpp:380] conv5 <- conv4
I0919 17:43:51.635459 76792 net.cpp:338] conv5 -> conv5
I0919 17:43:51.635469 76792 net.cpp:113] Setting up conv5
I0919 17:43:51.650770 76792 net.cpp:120] Top shape: 50 256 13 13 (2163200)
I0919 17:43:51.650791 76792 layer_factory.hpp:74] Creating layer relu5
I0919 17:43:51.650802 76792 net.cpp:84] Creating Layer relu5
I0919 17:43:51.650809 76792 net.cpp:380] relu5 <- conv5
I0919 17:43:51.650820 76792 net.cpp:327] relu5 -> conv5 (in-place)
I0919 17:43:51.650828 76792 net.cpp:113] Setting up relu5
I0919 17:43:51.650884 76792 net.cpp:120] Top shape: 50 256 13 13 (2163200)
I0919 17:43:51.650893 76792 layer_factory.hpp:74] Creating layer pool5
I0919 17:43:51.650907 76792 net.cpp:84] Creating Layer pool5
I0919 17:43:51.650913 76792 net.cpp:380] pool5 <- conv5
I0919 17:43:51.650921 76792 net.cpp:338] pool5 -> pool5
I0919 17:43:51.650930 76792 net.cpp:113] Setting up pool5
I0919 17:43:51.651077 76792 net.cpp:120] Top shape: 50 256 6 6 (460800)
I0919 17:43:51.651089 76792 layer_factory.hpp:74] Creating layer fc6
I0919 17:43:51.651101 76792 net.cpp:84] Creating Layer fc6
I0919 17:43:51.651108 76792 net.cpp:380] fc6 <- pool5
I0919 17:43:51.651119 76792 net.cpp:338] fc6 -> fc6
I0919 17:43:51.651131 76792 net.cpp:113] Setting up fc6
I0919 17:43:52.871713 76792 net.cpp:120] Top shape: 50 4096 (204800)
I0919 17:43:52.871778 76792 layer_factory.hpp:74] Creating layer relu6
I0919 17:43:52.871800 76792 net.cpp:84] Creating Layer relu6
I0919 17:43:52.871810 76792 net.cpp:380] relu6 <- fc6
I0919 17:43:52.871824 76792 net.cpp:327] relu6 -> fc6 (in-place)
I0919 17:43:52.871834 76792 net.cpp:113] Setting up relu6
I0919 17:43:52.871979 76792 net.cpp:120] Top shape: 50 4096 (204800)
I0919 17:43:52.871989 76792 layer_factory.hpp:74] Creating layer drop6
I0919 17:43:52.872000 76792 net.cpp:84] Creating Layer drop6
I0919 17:43:52.872007 76792 net.cpp:380] drop6 <- fc6
I0919 17:43:52.872017 76792 net.cpp:327] drop6 -> fc6 (in-place)
I0919 17:43:52.872027 76792 net.cpp:113] Setting up drop6
I0919 17:43:52.872037 76792 net.cpp:120] Top shape: 50 4096 (204800)
I0919 17:43:52.872043 76792 layer_factory.hpp:74] Creating layer fc7
I0919 17:43:52.872055 76792 net.cpp:84] Creating Layer fc7
I0919 17:43:52.872061 76792 net.cpp:380] fc7 <- fc6
I0919 17:43:52.872073 76792 net.cpp:338] fc7 -> fc7
I0919 17:43:52.872084 76792 net.cpp:113] Setting up fc7
I0919 17:43:53.413894 76792 net.cpp:120] Top shape: 50 4096 (204800)
I0919 17:43:53.413954 76792 layer_factory.hpp:74] Creating layer relu7
I0919 17:43:53.413974 76792 net.cpp:84] Creating Layer relu7
I0919 17:43:53.413982 76792 net.cpp:380] relu7 <- fc7
I0919 17:43:53.413995 76792 net.cpp:327] relu7 -> fc7 (in-place)
I0919 17:43:53.414006 76792 net.cpp:113] Setting up relu7
I0919 17:43:53.414130 76792 net.cpp:120] Top shape: 50 4096 (204800)
I0919 17:43:53.414139 76792 layer_factory.hpp:74] Creating layer drop7
I0919 17:43:53.414150 76792 net.cpp:84] Creating Layer drop7
I0919 17:43:53.414172 76792 net.cpp:380] drop7 <- fc7
I0919 17:43:53.414183 76792 net.cpp:327] drop7 -> fc7 (in-place)
I0919 17:43:53.414206 76792 net.cpp:113] Setting up drop7
I0919 17:43:53.414216 76792 net.cpp:120] Top shape: 50 4096 (204800)
I0919 17:43:53.414222 76792 layer_factory.hpp:74] Creating layer fc8_oxford_102
I0919 17:43:53.414233 76792 net.cpp:84] Creating Layer fc8_oxford_102
I0919 17:43:53.414239 76792 net.cpp:380] fc8_oxford_102 <- fc7
I0919 17:43:53.414252 76792 net.cpp:338] fc8_oxford_102 -> fc8_oxford_102
I0919 17:43:53.414307 76792 net.cpp:113] Setting up fc8_oxford_102
I0919 17:43:53.428145 76792 net.cpp:120] Top shape: 50 102 (5100)
I0919 17:43:53.428164 76792 layer_factory.hpp:74] Creating layer fc8_oxford_102_fc8_oxford_102_0_split
I0919 17:43:53.428174 76792 net.cpp:84] Creating Layer fc8_oxford_102_fc8_oxford_102_0_split
I0919 17:43:53.428180 76792 net.cpp:380] fc8_oxford_102_fc8_oxford_102_0_split <- fc8_oxford_102
I0919 17:43:53.428189 76792 net.cpp:338] fc8_oxford_102_fc8_oxford_102_0_split -> fc8_oxford_102_fc8_oxford_102_0_split_0
I0919 17:43:53.428200 76792 net.cpp:338] fc8_oxford_102_fc8_oxford_102_0_split -> fc8_oxford_102_fc8_oxford_102_0_split_1
I0919 17:43:53.428208 76792 net.cpp:113] Setting up fc8_oxford_102_fc8_oxford_102_0_split
I0919 17:43:53.428218 76792 net.cpp:120] Top shape: 50 102 (5100)
I0919 17:43:53.428225 76792 net.cpp:120] Top shape: 50 102 (5100)
I0919 17:43:53.428231 76792 layer_factory.hpp:74] Creating layer loss
I0919 17:43:53.428242 76792 net.cpp:84] Creating Layer loss
I0919 17:43:53.428249 76792 net.cpp:380] loss <- fc8_oxford_102_fc8_oxford_102_0_split_0
I0919 17:43:53.428257 76792 net.cpp:380] loss <- label_data_1_split_0
I0919 17:43:53.428267 76792 net.cpp:338] loss -> (automatic)
I0919 17:43:53.428273 76792 net.cpp:113] Setting up loss
…
