…
I0917 15:57:23.274962 11893 net.cpp:257] The NetState phase (0) differed from the phase (1) specified by a rule in layer accuracy
I0917 15:57:23.275177 11893 net.cpp:42] Initializing net from parameters: 
name: "Oxford102_CaffeNet"
state {
  phase: TRAIN
}
layer {
  name: "data"
  type: "ImageData"
  top: "data"
  top: "label"
  include {
    phase: TRAIN
  }
  transform_param {
    mirror: true
    crop_size: 227
    mean_file: "/home/ubuntu/caffe/data/ilsvrc12/imagenet_mean.binaryproto"
  }
  image_data_param {
    source: "/home/ubuntu/git/caffe-oxford102/train.txt"
    batch_size: 50
    new_height: 256
    new_width: 256
  }
}
layer {
  name: "conv1"
  type: "Convolution"
  bottom: "data"
  top: "conv1"
  param {
    lr_mult: 1
    decay_mult: 1
  }
  param {
    lr_mult: 2
    decay_mult: 0
  }
  convolution_param {
    num_output: 96
    kernel_size: 11
    stride: 4
    weight_filler {
      type: "gaussian"
      std: 0.01
    }
    bias_filler {
      type: "constant"
      value: 0
    }
  }
}
layer {
  name: "relu1"
  type: "ReLU"
  bottom: "conv1"
  top: "conv1"
}
layer {
  name: "pool1"
  type: "Pooling"
  bottom: "conv1"
  top: "pool1"
  pooling_param {
    pool: MAX
    kernel_size: 3
    stride: 2
  }
}
layer {
  name: "norm1"
  type: "LRN"
  bottom: "pool1"
  top: "norm1"
  lrn_param {
    local_size: 5
    alpha: 0.0001
    beta: 0.75
  }
}
layer {
  name: "conv2"
  type: "Convolution"
  bottom: "norm1"
  top: "conv2"
  param {
    lr_mult: 1
    decay_mult: 1
  }
  param {
    lr_mult: 2
    decay_mult: 0
  }
  convolution_param {
    num_output: 256
    pad: 2
    kernel_size: 5
    group: 2
    weight_filler {
      type: "gaussian"
      std: 0.01
    }
    bias_filler {
      type: "constant"
      value: 1
    }
  }
}
layer {
  name: "relu2"
  type: "ReLU"
  bottom: "conv2"
  top: "conv2"
}
layer {
  name: "pool2"
  type: "Pooling"
  bottom: "conv2"
  top: "pool2"
  pooling_param {
    pool: MAX
    kernel_size: 3
    stride: 2
  }
}
layer {
  name: "norm2"
  type: "LRN"
  bottom: "pool2"
  top: "norm2"
  lrn_param {
    local_size: 5
    alpha: 0.0001
    beta: 0.75
  }
}
layer {
  name: "conv3"
  type: "Convolution"
  bottom: "norm2"
  top: "conv3"
  param {
    lr_mult: 1
    decay_mult: 1
  }
  param {
    lr_mult: 2
    decay_mult: 0
  }
  convolution_param {
    num_output: 384
    pad: 1
    kernel_size: 3
    weight_filler {
      type: "gaussian"
      std: 0.01
    }
    bias_filler {
      type: "constant"
      value: 0
    }
  }
}
layer {
  name: "relu3"
  type: "ReLU"
  bottom: "conv3"
  top: "conv3"
}
layer {
  name: "conv4"
  type: "Convolution"
  bottom: "conv3"
  top: "conv4"
  param {
    lr_mult: 1
    decay_mult: 1
  }
  param {
    lr_mult: 2
    decay_mult: 0
  }
  convolution_param {
    num_output: 384
    pad: 1
    kernel_size: 3
    group: 2
    weight_filler {
      type: "gaussian"
      std: 0.01
    }
    bias_filler {
      type: "constant"
      value: 1
    }
  }
}
layer {
  name: "relu4"
  type: "ReLU"
  bottom: "conv4"
  top: "conv4"
}
layer {
  name: "conv5"
  type: "Convolution"
  bottom: "conv4"
  top: "conv5"
  param {
    lr_mult: 1
    decay_mult: 1
  }
  param {
    lr_mult: 2
    decay_mult: 0
  }
  convolution_param {
    num_output: 256
    pad: 1
    kernel_size: 3
    group: 2
    weight_filler {
      type: "gaussian"
      std: 0.01
    }
    bias_filler {
      type: "constant"
      value: 1
    }
  }
}
layer {
  name: "relu5"
  type: "ReLU"
  bottom: "conv5"
  top: "conv5"
}
layer {
  name: "pool5"
  type: "Pooling"
  bottom: "conv5"
  top: "pool5"
  pooling_param {
    pool: MAX
    kernel_size: 3
    stride: 2
  }
}
layer {
  name: "fc6"
  type: "InnerProduct"
  bottom: "pool5"
  top: "fc6"
  param {
    lr_mult: 1
    decay_mult: 1
  }
  param {
    lr_mult: 2
    decay_mult: 0
  }
  inner_product_param {
    num_output: 4096
    weight_filler {
      type: "gaussian"
      std: 0.005
    }
    bias_filler {
      type: "constant"
      value: 1
    }
  }
}
layer {
  name: "relu6"
  type: "ReLU"
  bottom: "fc6"
  top: "fc6"
}
layer {
  name: "drop6"
  type: "Dropout"
  bottom: "fc6"
  top: "fc6"
  dropout_param {
    dropout_ratio: 0.5
  }
}
layer {
  name: "fc7"
  type: "InnerProduct"
  bottom: "fc6"
  top: "fc7"
  param {
    lr_mult: 1
    decay_mult: 1
  }
  param {
    lr_mult: 2
    decay_mult: 0
  }
  inner_product_param {
    num_output: 4096
    weight_filler {
      type: "gaussian"
      std: 0.005
    }
    bias_filler {
      type: "constant"
      value: 1
    }
  }
}
layer {
  name: "relu7"
  type: "ReLU"
  bottom: "fc7"
  top: "fc7"
}
layer {
  name: "drop7"
  type: "Dropout"
  bottom: "fc7"
  top: "fc7"
  dropout_param {
    dropout_ratio: 0.5
  }
}
layer {
  name: "fc8_oxford_102"
  type: "InnerProduct"
  bottom: "fc7"
  top: "fc8_oxford_102"
  param {
    lr_mult: 10
    decay_mult: 1
  }
  param {
    lr_mult: 20
    decay_mult: 0
  }
  inner_product_param {
    num_output: 102
    weight_filler {
      type: "gaussian"
      std: 0.01
    }
    bias_filler {
      type: "constant"
      value: 0
    }
  }
}
layer {
  name: "loss"
  type: "SoftmaxWithLoss"
  bottom: "fc8_oxford_102"
  bottom: "label"
}
I0917 15:57:23.275332 11893 layer_factory.hpp:74] Creating layer data
I0917 15:57:23.275364 11893 net.cpp:84] Creating Layer data
I0917 15:57:23.275377 11893 net.cpp:338] data -> data
I0917 15:57:23.275408 11893 net.cpp:338] data -> label
I0917 15:57:23.275425 11893 net.cpp:113] Setting up data
I0917 15:57:23.275437 11893 image_data_layer.cpp:36] Opening file /home/ubuntu/git/caffe-oxford102/train.txt
I0917 15:57:23.275982 11893 image_data_layer.cpp:51] A total of 1020 images.
I0917 15:57:23.283748 11893 image_data_layer.cpp:80] output data size: 50,3,227,227
I0917 15:57:23.283784 11893 data_transformer.cpp:22] Loading mean file from: /home/ubuntu/caffe/data/ilsvrc12/imagenet_mean.binaryproto
I0917 15:57:23.293428 11893 net.cpp:120] Top shape: 50 3 227 227 (7729350)
I0917 15:57:23.293465 11893 net.cpp:120] Top shape: 50 (50)
I0917 15:57:23.293479 11893 layer_factory.hpp:74] Creating layer conv1
I0917 15:57:23.293509 11893 net.cpp:84] Creating Layer conv1
I0917 15:57:23.293521 11893 net.cpp:380] conv1 <- data
I0917 15:57:23.293539 11893 net.cpp:338] conv1 -> conv1
I0917 15:57:23.293556 11893 net.cpp:113] Setting up conv1
I0917 15:57:23.348711 11893 net.cpp:120] Top shape: 50 96 55 55 (14520000)
I0917 15:57:23.348768 11893 layer_factory.hpp:74] Creating layer relu1
I0917 15:57:23.348789 11893 net.cpp:84] Creating Layer relu1
I0917 15:57:23.348798 11893 net.cpp:380] relu1 <- conv1
I0917 15:57:23.348809 11893 net.cpp:327] relu1 -> conv1 (in-place)
I0917 15:57:23.348821 11893 net.cpp:113] Setting up relu1
I0917 15:57:23.348987 11893 net.cpp:120] Top shape: 50 96 55 55 (14520000)
I0917 15:57:23.349000 11893 layer_factory.hpp:74] Creating layer pool1
I0917 15:57:23.349021 11893 net.cpp:84] Creating Layer pool1
I0917 15:57:23.349030 11893 net.cpp:380] pool1 <- conv1
I0917 15:57:23.349040 11893 net.cpp:338] pool1 -> pool1
I0917 15:57:23.349050 11893 net.cpp:113] Setting up pool1
I0917 15:57:23.349123 11893 net.cpp:120] Top shape: 50 96 27 27 (3499200)
I0917 15:57:23.349134 11893 layer_factory.hpp:74] Creating layer norm1
I0917 15:57:23.349161 11893 net.cpp:84] Creating Layer norm1
I0917 15:57:23.349179 11893 net.cpp:380] norm1 <- pool1
I0917 15:57:23.349189 11893 net.cpp:338] norm1 -> norm1
I0917 15:57:23.349200 11893 net.cpp:113] Setting up norm1
I0917 15:57:23.349215 11893 net.cpp:120] Top shape: 50 96 27 27 (3499200)
I0917 15:57:23.349221 11893 layer_factory.hpp:74] Creating layer conv2
I0917 15:57:23.349234 11893 net.cpp:84] Creating Layer conv2
I0917 15:57:23.349241 11893 net.cpp:380] conv2 <- norm1
I0917 15:57:23.349251 11893 net.cpp:338] conv2 -> conv2
I0917 15:57:23.349262 11893 net.cpp:113] Setting up conv2
I0917 15:57:23.359520 11893 net.cpp:120] Top shape: 50 256 27 27 (9331200)
I0917 15:57:23.359547 11893 layer_factory.hpp:74] Creating layer relu2
I0917 15:57:23.359558 11893 net.cpp:84] Creating Layer relu2
I0917 15:57:23.359565 11893 net.cpp:380] relu2 <- conv2
I0917 15:57:23.359575 11893 net.cpp:327] relu2 -> conv2 (in-place)
I0917 15:57:23.359583 11893 net.cpp:113] Setting up relu2
I0917 15:57:23.359632 11893 net.cpp:120] Top shape: 50 256 27 27 (9331200)
I0917 15:57:23.359642 11893 layer_factory.hpp:74] Creating layer pool2
I0917 15:57:23.359650 11893 net.cpp:84] Creating Layer pool2
I0917 15:57:23.359658 11893 net.cpp:380] pool2 <- conv2
I0917 15:57:23.359666 11893 net.cpp:338] pool2 -> pool2
I0917 15:57:23.359675 11893 net.cpp:113] Setting up pool2
I0917 15:57:23.359810 11893 net.cpp:120] Top shape: 50 256 13 13 (2163200)
I0917 15:57:23.359823 11893 layer_factory.hpp:74] Creating layer norm2
I0917 15:57:23.359835 11893 net.cpp:84] Creating Layer norm2
I0917 15:57:23.359843 11893 net.cpp:380] norm2 <- pool2
I0917 15:57:23.359850 11893 net.cpp:338] norm2 -> norm2
I0917 15:57:23.359860 11893 net.cpp:113] Setting up norm2
I0917 15:57:23.359870 11893 net.cpp:120] Top shape: 50 256 13 13 (2163200)
I0917 15:57:23.359876 11893 layer_factory.hpp:74] Creating layer conv3
I0917 15:57:23.359887 11893 net.cpp:84] Creating Layer conv3
I0917 15:57:23.359894 11893 net.cpp:380] conv3 <- norm2
I0917 15:57:23.359904 11893 net.cpp:338] conv3 -> conv3
I0917 15:57:23.359915 11893 net.cpp:113] Setting up conv3
I0917 15:57:23.389590 11893 net.cpp:120] Top shape: 50 384 13 13 (3244800)
I0917 15:57:23.389618 11893 layer_factory.hpp:74] Creating layer relu3
I0917 15:57:23.389631 11893 net.cpp:84] Creating Layer relu3
I0917 15:57:23.389638 11893 net.cpp:380] relu3 <- conv3
I0917 15:57:23.389648 11893 net.cpp:327] relu3 -> conv3 (in-place)
I0917 15:57:23.389658 11893 net.cpp:113] Setting up relu3
I0917 15:57:23.389708 11893 net.cpp:120] Top shape: 50 384 13 13 (3244800)
I0917 15:57:23.389716 11893 layer_factory.hpp:74] Creating layer conv4
I0917 15:57:23.389729 11893 net.cpp:84] Creating Layer conv4
I0917 15:57:23.389735 11893 net.cpp:380] conv4 <- conv3
I0917 15:57:23.389745 11893 net.cpp:338] conv4 -> conv4
I0917 15:57:23.389756 11893 net.cpp:113] Setting up conv4
I0917 15:57:23.411990 11893 net.cpp:120] Top shape: 50 384 13 13 (3244800)
I0917 15:57:23.412013 11893 layer_factory.hpp:74] Creating layer relu4
I0917 15:57:23.412024 11893 net.cpp:84] Creating Layer relu4
I0917 15:57:23.412034 11893 net.cpp:380] relu4 <- conv4
I0917 15:57:23.412044 11893 net.cpp:327] relu4 -> conv4 (in-place)
I0917 15:57:23.412053 11893 net.cpp:113] Setting up relu4
I0917 15:57:23.412103 11893 net.cpp:120] Top shape: 50 384 13 13 (3244800)
I0917 15:57:23.412112 11893 layer_factory.hpp:74] Creating layer conv5
I0917 15:57:23.412124 11893 net.cpp:84] Creating Layer conv5
I0917 15:57:23.412132 11893 net.cpp:380] conv5 <- conv4
I0917 15:57:23.412142 11893 net.cpp:338] conv5 -> conv5
I0917 15:57:23.412152 11893 net.cpp:113] Setting up conv5
I0917 15:57:23.426811 11893 net.cpp:120] Top shape: 50 256 13 13 (2163200)
I0917 15:57:23.426834 11893 layer_factory.hpp:74] Creating layer relu5
I0917 15:57:23.426846 11893 net.cpp:84] Creating Layer relu5
I0917 15:57:23.426852 11893 net.cpp:380] relu5 <- conv5
I0917 15:57:23.426862 11893 net.cpp:327] relu5 -> conv5 (in-place)
I0917 15:57:23.426870 11893 net.cpp:113] Setting up relu5
I0917 15:57:23.426935 11893 net.cpp:120] Top shape: 50 256 13 13 (2163200)
I0917 15:57:23.426945 11893 layer_factory.hpp:74] Creating layer pool5
I0917 15:57:23.426970 11893 net.cpp:84] Creating Layer pool5
I0917 15:57:23.426976 11893 net.cpp:380] pool5 <- conv5
I0917 15:57:23.426985 11893 net.cpp:338] pool5 -> pool5
I0917 15:57:23.426995 11893 net.cpp:113] Setting up pool5
I0917 15:57:23.427135 11893 net.cpp:120] Top shape: 50 256 6 6 (460800)
I0917 15:57:23.427148 11893 layer_factory.hpp:74] Creating layer fc6
I0917 15:57:23.427170 11893 net.cpp:84] Creating Layer fc6
I0917 15:57:23.427177 11893 net.cpp:380] fc6 <- pool5
I0917 15:57:23.427187 11893 net.cpp:338] fc6 -> fc6
I0917 15:57:23.427198 11893 net.cpp:113] Setting up fc6
I0917 15:57:24.658656 11893 net.cpp:120] Top shape: 50 4096 (204800)
I0917 15:57:24.658710 11893 layer_factory.hpp:74] Creating layer relu6
I0917 15:57:24.658728 11893 net.cpp:84] Creating Layer relu6
I0917 15:57:24.658736 11893 net.cpp:380] relu6 <- fc6
I0917 15:57:24.658748 11893 net.cpp:327] relu6 -> fc6 (in-place)
I0917 15:57:24.658761 11893 net.cpp:113] Setting up relu6
I0917 15:57:24.658867 11893 net.cpp:120] Top shape: 50 4096 (204800)
I0917 15:57:24.658877 11893 layer_factory.hpp:74] Creating layer drop6
I0917 15:57:24.658897 11893 net.cpp:84] Creating Layer drop6
I0917 15:57:24.658907 11893 net.cpp:380] drop6 <- fc6
I0917 15:57:24.658916 11893 net.cpp:327] drop6 -> fc6 (in-place)
I0917 15:57:24.658926 11893 net.cpp:113] Setting up drop6
I0917 15:57:24.658942 11893 net.cpp:120] Top shape: 50 4096 (204800)
I0917 15:57:24.658949 11893 layer_factory.hpp:74] Creating layer fc7
I0917 15:57:24.658962 11893 net.cpp:84] Creating Layer fc7
I0917 15:57:24.658967 11893 net.cpp:380] fc7 <- fc6
I0917 15:57:24.658977 11893 net.cpp:338] fc7 -> fc7
I0917 15:57:24.658989 11893 net.cpp:113] Setting up fc7
I0917 15:57:25.208156 11893 net.cpp:120] Top shape: 50 4096 (204800)
I0917 15:57:25.208214 11893 layer_factory.hpp:74] Creating layer relu7
I0917 15:57:25.208231 11893 net.cpp:84] Creating Layer relu7
I0917 15:57:25.208240 11893 net.cpp:380] relu7 <- fc7
I0917 15:57:25.208251 11893 net.cpp:327] relu7 -> fc7 (in-place)
I0917 15:57:25.208263 11893 net.cpp:113] Setting up relu7
I0917 15:57:25.208370 11893 net.cpp:120] Top shape: 50 4096 (204800)
I0917 15:57:25.208380 11893 layer_factory.hpp:74] Creating layer drop7
I0917 15:57:25.208394 11893 net.cpp:84] Creating Layer drop7
I0917 15:57:25.208400 11893 net.cpp:380] drop7 <- fc7
I0917 15:57:25.208410 11893 net.cpp:327] drop7 -> fc7 (in-place)
I0917 15:57:25.208418 11893 net.cpp:113] Setting up drop7
I0917 15:57:25.208428 11893 net.cpp:120] Top shape: 50 4096 (204800)
I0917 15:57:25.208434 11893 layer_factory.hpp:74] Creating layer fc8_oxford_102
I0917 15:57:25.208446 11893 net.cpp:84] Creating Layer fc8_oxford_102
I0917 15:57:25.208452 11893 net.cpp:380] fc8_oxford_102 <- fc7
I0917 15:57:25.208462 11893 net.cpp:338] fc8_oxford_102 -> fc8_oxford_102
I0917 15:57:25.208474 11893 net.cpp:113] Setting up fc8_oxford_102
I0917 15:57:25.222270 11893 net.cpp:120] Top shape: 50 102 (5100)
I0917 15:57:25.222286 11893 layer_factory.hpp:74] Creating layer loss
I0917 15:57:25.222303 11893 net.cpp:84] Creating Layer loss
I0917 15:57:25.222311 11893 net.cpp:380] loss <- fc8_oxford_102
I0917 15:57:25.222318 11893 net.cpp:380] loss <- label
I0917 15:57:25.222337 11893 net.cpp:338] loss -> (automatic)
I0917 15:57:25.222347 11893 net.cpp:113] Setting up loss
I0917 15:57:25.222360 11893 layer_factory.hpp:74] Creating layer loss
…
I0917 15:57:25.223738 11893 net.cpp:257] The NetState phase (1) differed from the phase (0) specified by a rule in layer data
I0917 15:57:25.223983 11893 net.cpp:42] Initializing net from parameters: 
name: "Oxford102_CaffeNet"
state {
  phase: TEST
}
layer {
  name: "data"
  type: "ImageData"
  top: "data"
  top: "label"
  include {
    phase: TEST
  }
  transform_param {
    mirror: false
    crop_size: 227
    mean_file: "/home/ubuntu/caffe/data/ilsvrc12/imagenet_mean.binaryproto"
  }
  image_data_param {
    source: "/home/ubuntu/git/caffe-oxford102/test.txt"
    batch_size: 50
    new_height: 256
    new_width: 256
  }
}
layer {
  name: "conv1"
  type: "Convolution"
  bottom: "data"
  top: "conv1"
  param {
    lr_mult: 1
    decay_mult: 1
  }
  param {
    lr_mult: 2
    decay_mult: 0
  }
  convolution_param {
    num_output: 96
    kernel_size: 11
    stride: 4
    weight_filler {
      type: "gaussian"
      std: 0.01
    }
    bias_filler {
      type: "constant"
      value: 0
    }
  }
}
layer {
  name: "relu1"
  type: "ReLU"
  bottom: "conv1"
  top: "conv1"
}
layer {
  name: "pool1"
  type: "Pooling"
  bottom: "conv1"
  top: "pool1"
  pooling_param {
    pool: MAX
    kernel_size: 3
    stride: 2
  }
}
layer {
  name: "norm1"
  type: "LRN"
  bottom: "pool1"
  top: "norm1"
  lrn_param {
    local_size: 5
    alpha: 0.0001
    beta: 0.75
  }
}
layer {
  name: "conv2"
  type: "Convolution"
  bottom: "norm1"
  top: "conv2"
  param {
    lr_mult: 1
    decay_mult: 1
  }
  param {
    lr_mult: 2
    decay_mult: 0
  }
  convolution_param {
    num_output: 256
    pad: 2
    kernel_size: 5
    group: 2
    weight_filler {
      type: "gaussian"
      std: 0.01
    }
    bias_filler {
      type: "constant"
      value: 1
    }
  }
}
layer {
  name: "relu2"
  type: "ReLU"
  bottom: "conv2"
  top: "conv2"
}
layer {
  name: "pool2"
  type: "Pooling"
  bottom: "conv2"
  top: "pool2"
  pooling_param {
    pool: MAX
    kernel_size: 3
    stride: 2
  }
}
layer {
  name: "norm2"
  type: "LRN"
  bottom: "pool2"
  top: "norm2"
  lrn_param {
    local_size: 5
    alpha: 0.0001
    beta: 0.75
  }
}
layer {
  name: "conv3"
  type: "Convolution"
  bottom: "norm2"
  top: "conv3"
  param {
    lr_mult: 1
    decay_mult: 1
  }
  param {
    lr_mult: 2
    decay_mult: 0
  }
  convolution_param {
    num_output: 384
    pad: 1
    kernel_size: 3
    weight_filler {
      type: "gaussian"
      std: 0.01
    }
    bias_filler {
      type: "constant"
      value: 0
    }
  }
}
layer {
  name: "relu3"
  type: "ReLU"
  bottom: "conv3"
  top: "conv3"
}
layer {
  name: "conv4"
  type: "Convolution"
  bottom: "conv3"
  top: "conv4"
  param {
    lr_mult: 1
    decay_mult: 1
  }
  param {
    lr_mult: 2
    decay_mult: 0
  }
  convolution_param {
    num_output: 384
    pad: 1
    kernel_size: 3
    group: 2
    weight_filler {
      type: "gaussian"
      std: 0.01
    }
    bias_filler {
      type: "constant"
      value: 1
    }
  }
}
layer {
  name: "relu4"
  type: "ReLU"
  bottom: "conv4"
  top: "conv4"
}
layer {
  name: "conv5"
  type: "Convolution"
  bottom: "conv4"
  top: "conv5"
  param {
    lr_mult: 1
    decay_mult: 1
  }
  param {
    lr_mult: 2
    decay_mult: 0
  }
  convolution_param {
    num_output: 256
    pad: 1
    kernel_size: 3
    group: 2
    weight_filler {
      type: "gaussian"
      std: 0.01
    }
    bias_filler {
      type: "constant"
      value: 1
    }
  }
}
layer {
  name: "relu5"
  type: "ReLU"
  bottom: "conv5"
  top: "conv5"
}
layer {
  name: "pool5"
  type: "Pooling"
  bottom: "conv5"
  top: "pool5"
  pooling_param {
    pool: MAX
    kernel_size: 3
    stride: 2
  }
}
layer {
  name: "fc6"
  type: "InnerProduct"
  bottom: "pool5"
  top: "fc6"
  param {
    lr_mult: 1
    decay_mult: 1
  }
  param {
    lr_mult: 2
    decay_mult: 0
  }
  inner_product_param {
    num_output: 4096
    weight_filler {
      type: "gaussian"
      std: 0.005
    }
    bias_filler {
      type: "constant"
      value: 1
    }
  }
}
layer {
  name: "relu6"
  type: "ReLU"
  bottom: "fc6"
  top: "fc6"
}
layer {
  name: "drop6"
  type: "Dropout"
  bottom: "fc6"
  top: "fc6"
  dropout_param {
    dropout_ratio: 0.5
  }
}
layer {
  name: "fc7"
  type: "InnerProduct"
  bottom: "fc6"
  top: "fc7"
  param {
    lr_mult: 1
    decay_mult: 1
  }
  param {
    lr_mult: 2
    decay_mult: 0
  }
  inner_product_param {
    num_output: 4096
    weight_filler {
      type: "gaussian"
      std: 0.005
    }
    bias_filler {
      type: "constant"
      value: 1
    }
  }
}
layer {
  name: "relu7"
  type: "ReLU"
  bottom: "fc7"
  top: "fc7"
}
layer {
  name: "drop7"
  type: "Dropout"
  bottom: "fc7"
  top: "fc7"
  dropout_param {
    dropout_ratio: 0.5
  }
}
layer {
  name: "fc8_oxford_102"
  type: "InnerProduct"
  bottom: "fc7"
  top: "fc8_oxford_102"
  param {
    lr_mult: 10
    decay_mult: 1
  }
  param {
    lr_mult: 20
    decay_mult: 0
  }
  inner_product_param {
    num_output: 102
    weight_filler {
      type: "gaussian"
      std: 0.01
    }
    bias_filler {
      type: "constant"
      value: 0
    }
  }
}
layer {
  name: "loss"
  type: "SoftmaxWithLoss"
  bottom: "fc8_oxford_102"
  bottom: "label"
}
layer {
  name: "accuracy"
  type: "Accuracy"
  bottom: "fc8_oxford_102"
  bottom: "label"
  top: "accuracy"
  include {
    phase: TEST
  }
}
I0917 15:57:25.224131 11893 layer_factory.hpp:74] Creating layer data
I0917 15:57:25.224148 11893 net.cpp:84] Creating Layer data
I0917 15:57:25.224158 11893 net.cpp:338] data -> data
I0917 15:57:25.224170 11893 net.cpp:338] data -> label
I0917 15:57:25.224181 11893 net.cpp:113] Setting up data
I0917 15:57:25.224189 11893 image_data_layer.cpp:36] Opening file /home/ubuntu/git/caffe-oxford102/test.txt
I0917 15:57:25.227180 11893 image_data_layer.cpp:51] A total of 6149 images.
I0917 15:57:25.231847 11893 image_data_layer.cpp:80] output data size: 50,3,227,227
I0917 15:57:25.231868 11893 data_transformer.cpp:22] Loading mean file from: /home/ubuntu/caffe/data/ilsvrc12/imagenet_mean.binaryproto
I0917 15:57:25.241437 11893 net.cpp:120] Top shape: 50 3 227 227 (7729350)
I0917 15:57:25.241480 11893 net.cpp:120] Top shape: 50 (50)
I0917 15:57:25.241492 11893 layer_factory.hpp:74] Creating layer label_data_1_split
I0917 15:57:25.241524 11893 net.cpp:84] Creating Layer label_data_1_split
I0917 15:57:25.241544 11893 net.cpp:380] label_data_1_split <- label
I0917 15:57:25.241562 11893 net.cpp:338] label_data_1_split -> label_data_1_split_0
I0917 15:57:25.241580 11893 net.cpp:338] label_data_1_split -> label_data_1_split_1
I0917 15:57:25.241602 11893 net.cpp:113] Setting up label_data_1_split
I0917 15:57:25.241621 11893 net.cpp:120] Top shape: 50 (50)
I0917 15:57:25.241629 11893 net.cpp:120] Top shape: 50 (50)
I0917 15:57:25.241636 11893 layer_factory.hpp:74] Creating layer conv1
I0917 15:57:25.241652 11893 net.cpp:84] Creating Layer conv1
I0917 15:57:25.241658 11893 net.cpp:380] conv1 <- data
I0917 15:57:25.241668 11893 net.cpp:338] conv1 -> conv1
I0917 15:57:25.241680 11893 net.cpp:113] Setting up conv1
I0917 15:57:25.243283 11893 net.cpp:120] Top shape: 50 96 55 55 (14520000)
I0917 15:57:25.243306 11893 layer_factory.hpp:74] Creating layer relu1
I0917 15:57:25.243319 11893 net.cpp:84] Creating Layer relu1
I0917 15:57:25.243324 11893 net.cpp:380] relu1 <- conv1
I0917 15:57:25.243333 11893 net.cpp:327] relu1 -> conv1 (in-place)
I0917 15:57:25.243342 11893 net.cpp:113] Setting up relu1
I0917 15:57:25.243484 11893 net.cpp:120] Top shape: 50 96 55 55 (14520000)
I0917 15:57:25.243497 11893 layer_factory.hpp:74] Creating layer pool1
I0917 15:57:25.243511 11893 net.cpp:84] Creating Layer pool1
I0917 15:57:25.243518 11893 net.cpp:380] pool1 <- conv1
I0917 15:57:25.243528 11893 net.cpp:338] pool1 -> pool1
I0917 15:57:25.243537 11893 net.cpp:113] Setting up pool1
I0917 15:57:25.243599 11893 net.cpp:120] Top shape: 50 96 27 27 (3499200)
I0917 15:57:25.243608 11893 layer_factory.hpp:74] Creating layer norm1
I0917 15:57:25.243620 11893 net.cpp:84] Creating Layer norm1
I0917 15:57:25.243628 11893 net.cpp:380] norm1 <- pool1
I0917 15:57:25.243638 11893 net.cpp:338] norm1 -> norm1
I0917 15:57:25.243646 11893 net.cpp:113] Setting up norm1
I0917 15:57:25.243656 11893 net.cpp:120] Top shape: 50 96 27 27 (3499200)
I0917 15:57:25.243662 11893 layer_factory.hpp:74] Creating layer conv2
I0917 15:57:25.243674 11893 net.cpp:84] Creating Layer conv2
I0917 15:57:25.243680 11893 net.cpp:380] conv2 <- norm1
I0917 15:57:25.243690 11893 net.cpp:338] conv2 -> conv2
I0917 15:57:25.243700 11893 net.cpp:113] Setting up conv2
I0917 15:57:25.254652 11893 net.cpp:120] Top shape: 50 256 27 27 (9331200)
I0917 15:57:25.254673 11893 layer_factory.hpp:74] Creating layer relu2
I0917 15:57:25.254685 11893 net.cpp:84] Creating Layer relu2
I0917 15:57:25.254693 11893 net.cpp:380] relu2 <- conv2
I0917 15:57:25.254701 11893 net.cpp:327] relu2 -> conv2 (in-place)
I0917 15:57:25.254710 11893 net.cpp:113] Setting up relu2
I0917 15:57:25.254776 11893 net.cpp:120] Top shape: 50 256 27 27 (9331200)
I0917 15:57:25.254787 11893 layer_factory.hpp:74] Creating layer pool2
I0917 15:57:25.254801 11893 net.cpp:84] Creating Layer pool2
I0917 15:57:25.254808 11893 net.cpp:380] pool2 <- conv2
I0917 15:57:25.254817 11893 net.cpp:338] pool2 -> pool2
I0917 15:57:25.254827 11893 net.cpp:113] Setting up pool2
I0917 15:57:25.254887 11893 net.cpp:120] Top shape: 50 256 13 13 (2163200)
I0917 15:57:25.254899 11893 layer_factory.hpp:74] Creating layer norm2
I0917 15:57:25.254909 11893 net.cpp:84] Creating Layer norm2
I0917 15:57:25.254915 11893 net.cpp:380] norm2 <- pool2
I0917 15:57:25.254925 11893 net.cpp:338] norm2 -> norm2
I0917 15:57:25.254933 11893 net.cpp:113] Setting up norm2
I0917 15:57:25.254943 11893 net.cpp:120] Top shape: 50 256 13 13 (2163200)
I0917 15:57:25.254950 11893 layer_factory.hpp:74] Creating layer conv3
I0917 15:57:25.254962 11893 net.cpp:84] Creating Layer conv3
I0917 15:57:25.254969 11893 net.cpp:380] conv3 <- norm2
I0917 15:57:25.254978 11893 net.cpp:338] conv3 -> conv3
I0917 15:57:25.254987 11893 net.cpp:113] Setting up conv3
I0917 15:57:25.285744 11893 net.cpp:120] Top shape: 50 384 13 13 (3244800)
I0917 15:57:25.285780 11893 layer_factory.hpp:74] Creating layer relu3
I0917 15:57:25.285794 11893 net.cpp:84] Creating Layer relu3
I0917 15:57:25.285802 11893 net.cpp:380] relu3 <- conv3
I0917 15:57:25.285822 11893 net.cpp:327] relu3 -> conv3 (in-place)
I0917 15:57:25.285842 11893 net.cpp:113] Setting up relu3
I0917 15:57:25.285992 11893 net.cpp:120] Top shape: 50 384 13 13 (3244800)
I0917 15:57:25.286005 11893 layer_factory.hpp:74] Creating layer conv4
I0917 15:57:25.286025 11893 net.cpp:84] Creating Layer conv4
I0917 15:57:25.286032 11893 net.cpp:380] conv4 <- conv3
I0917 15:57:25.286042 11893 net.cpp:338] conv4 -> conv4
I0917 15:57:25.286054 11893 net.cpp:113] Setting up conv4
I0917 15:57:25.309522 11893 net.cpp:120] Top shape: 50 384 13 13 (3244800)
I0917 15:57:25.309553 11893 layer_factory.hpp:74] Creating layer relu4
I0917 15:57:25.309566 11893 net.cpp:84] Creating Layer relu4
I0917 15:57:25.309573 11893 net.cpp:380] relu4 <- conv4
I0917 15:57:25.309586 11893 net.cpp:327] relu4 -> conv4 (in-place)
I0917 15:57:25.309597 11893 net.cpp:113] Setting up relu4
I0917 15:57:25.309654 11893 net.cpp:120] Top shape: 50 384 13 13 (3244800)
I0917 15:57:25.309665 11893 layer_factory.hpp:74] Creating layer conv5
I0917 15:57:25.309679 11893 net.cpp:84] Creating Layer conv5
I0917 15:57:25.309686 11893 net.cpp:380] conv5 <- conv4
I0917 15:57:25.309697 11893 net.cpp:338] conv5 -> conv5
I0917 15:57:25.309710 11893 net.cpp:113] Setting up conv5
I0917 15:57:25.325413 11893 net.cpp:120] Top shape: 50 256 13 13 (2163200)
I0917 15:57:25.325438 11893 layer_factory.hpp:74] Creating layer relu5
I0917 15:57:25.325449 11893 net.cpp:84] Creating Layer relu5
I0917 15:57:25.325456 11893 net.cpp:380] relu5 <- conv5
I0917 15:57:25.325466 11893 net.cpp:327] relu5 -> conv5 (in-place)
I0917 15:57:25.325476 11893 net.cpp:113] Setting up relu5
I0917 15:57:25.325536 11893 net.cpp:120] Top shape: 50 256 13 13 (2163200)
I0917 15:57:25.325546 11893 layer_factory.hpp:74] Creating layer pool5
I0917 15:57:25.325562 11893 net.cpp:84] Creating Layer pool5
I0917 15:57:25.325570 11893 net.cpp:380] pool5 <- conv5
I0917 15:57:25.325579 11893 net.cpp:338] pool5 -> pool5
I0917 15:57:25.325588 11893 net.cpp:113] Setting up pool5
I0917 15:57:25.325744 11893 net.cpp:120] Top shape: 50 256 6 6 (460800)
I0917 15:57:25.325757 11893 layer_factory.hpp:74] Creating layer fc6
I0917 15:57:25.325772 11893 net.cpp:84] Creating Layer fc6
I0917 15:57:25.325779 11893 net.cpp:380] fc6 <- pool5
I0917 15:57:25.325788 11893 net.cpp:338] fc6 -> fc6
I0917 15:57:25.325799 11893 net.cpp:113] Setting up fc6
I0917 15:57:26.552253 11893 net.cpp:120] Top shape: 50 4096 (204800)
I0917 15:57:26.552309 11893 layer_factory.hpp:74] Creating layer relu6
I0917 15:57:26.552327 11893 net.cpp:84] Creating Layer relu6
I0917 15:57:26.552336 11893 net.cpp:380] relu6 <- fc6
I0917 15:57:26.552347 11893 net.cpp:327] relu6 -> fc6 (in-place)
I0917 15:57:26.552361 11893 net.cpp:113] Setting up relu6
I0917 15:57:26.552471 11893 net.cpp:120] Top shape: 50 4096 (204800)
I0917 15:57:26.552481 11893 layer_factory.hpp:74] Creating layer drop6
I0917 15:57:26.552494 11893 net.cpp:84] Creating Layer drop6
I0917 15:57:26.552500 11893 net.cpp:380] drop6 <- fc6
I0917 15:57:26.552508 11893 net.cpp:327] drop6 -> fc6 (in-place)
I0917 15:57:26.552518 11893 net.cpp:113] Setting up drop6
I0917 15:57:26.552527 11893 net.cpp:120] Top shape: 50 4096 (204800)
I0917 15:57:26.552534 11893 layer_factory.hpp:74] Creating layer fc7
I0917 15:57:26.552546 11893 net.cpp:84] Creating Layer fc7
I0917 15:57:26.552552 11893 net.cpp:380] fc7 <- fc6
I0917 15:57:26.552567 11893 net.cpp:338] fc7 -> fc7
I0917 15:57:26.552580 11893 net.cpp:113] Setting up fc7
I0917 15:57:27.097506 11893 net.cpp:120] Top shape: 50 4096 (204800)
I0917 15:57:27.097556 11893 layer_factory.hpp:74] Creating layer relu7
I0917 15:57:27.097574 11893 net.cpp:84] Creating Layer relu7
I0917 15:57:27.097584 11893 net.cpp:380] relu7 <- fc7
I0917 15:57:27.097600 11893 net.cpp:327] relu7 -> fc7 (in-place)
I0917 15:57:27.097614 11893 net.cpp:113] Setting up relu7
I0917 15:57:27.097723 11893 net.cpp:120] Top shape: 50 4096 (204800)
I0917 15:57:27.097733 11893 layer_factory.hpp:74] Creating layer drop7
I0917 15:57:27.097745 11893 net.cpp:84] Creating Layer drop7
I0917 15:57:27.097764 11893 net.cpp:380] drop7 <- fc7
I0917 15:57:27.097772 11893 net.cpp:327] drop7 -> fc7 (in-place)
I0917 15:57:27.097793 11893 net.cpp:113] Setting up drop7
I0917 15:57:27.097803 11893 net.cpp:120] Top shape: 50 4096 (204800)
I0917 15:57:27.097810 11893 layer_factory.hpp:74] Creating layer fc8_oxford_102
I0917 15:57:27.097823 11893 net.cpp:84] Creating Layer fc8_oxford_102
I0917 15:57:27.097831 11893 net.cpp:380] fc8_oxford_102 <- fc7
I0917 15:57:27.097842 11893 net.cpp:338] fc8_oxford_102 -> fc8_oxford_102
I0917 15:57:27.097858 11893 net.cpp:113] Setting up fc8_oxford_102
I0917 15:57:27.111676 11893 net.cpp:120] Top shape: 50 102 (5100)
I0917 15:57:27.111695 11893 layer_factory.hpp:74] Creating layer fc8_oxford_102_fc8_oxford_102_0_split
I0917 15:57:27.111708 11893 net.cpp:84] Creating Layer fc8_oxford_102_fc8_oxford_102_0_split
I0917 15:57:27.111716 11893 net.cpp:380] fc8_oxford_102_fc8_oxford_102_0_split <- fc8_oxford_102
I0917 15:57:27.111724 11893 net.cpp:338] fc8_oxford_102_fc8_oxford_102_0_split -> fc8_oxford_102_fc8_oxford_102_0_split_0
I0917 15:57:27.111735 11893 net.cpp:338] fc8_oxford_102_fc8_oxford_102_0_split -> fc8_oxford_102_fc8_oxford_102_0_split_1
I0917 15:57:27.111744 11893 net.cpp:113] Setting up fc8_oxford_102_fc8_oxford_102_0_split
I0917 15:57:27.111757 11893 net.cpp:120] Top shape: 50 102 (5100)
I0917 15:57:27.111764 11893 net.cpp:120] Top shape: 50 102 (5100)
I0917 15:57:27.111770 11893 layer_factory.hpp:74] Creating layer loss
I0917 15:57:27.111779 11893 net.cpp:84] Creating Layer loss
I0917 15:57:27.111785 11893 net.cpp:380] loss <- fc8_oxford_102_fc8_oxford_102_0_split_0
I0917 15:57:27.111795 11893 net.cpp:380] loss <- label_data_1_split_0
I0917 15:57:27.111804 11893 net.cpp:338] loss -> (automatic)
I0917 15:57:27.111812 11893 net.cpp:113] Setting up loss
…
