…
I0919 17:45:11.347582 78103 net.cpp:257] The NetState phase (0) differed from the phase (1) specified by a rule in layer accuracy
I0919 17:45:11.347771 78103 net.cpp:42] Initializing net from parameters: 
name: "Oxford102_VGG_CNN_S"
state {
  phase: TRAIN
}
layer {
  name: "data"
  type: "ImageData"
  top: "data"
  top: "label"
  include {
    phase: TRAIN
  }
  transform_param {
    mirror: true
    crop_size: 224
    mean_file: "/home/ubuntu/caffe/data/ilsvrc12/imagenet_mean.binaryproto"
  }
  image_data_param {
    source: "/home/ubuntu/git/caffe-oxford102/test.txt"
    batch_size: 50
    new_height: 256
    new_width: 256
  }
}
layer {
  name: "conv1"
  type: "Convolution"
  bottom: "data"
  top: "conv1"
  param {
    lr_mult: 1
    decay_mult: 1
  }
  param {
    lr_mult: 2
    decay_mult: 0
  }
  convolution_param {
    num_output: 96
    kernel_size: 7
    stride: 2
    weight_filler {
      type: "gaussian"
      std: 0.01
    }
    bias_filler {
      type: "constant"
      value: 0
    }
  }
}
layer {
  name: "relu1"
  type: "ReLU"
  bottom: "conv1"
  top: "conv1"
}
layer {
  name: "norm1"
  type: "LRN"
  bottom: "conv1"
  top: "norm1"
  lrn_param {
    local_size: 5
    alpha: 0.0005
    beta: 0.75
    k: 2
  }
}
layer {
  name: "pool1"
  type: "Pooling"
  bottom: "norm1"
  top: "pool1"
  pooling_param {
    pool: MAX
    kernel_size: 3
    stride: 3
  }
}
layer {
  name: "conv2"
  type: "Convolution"
  bottom: "pool1"
  top: "conv2"
  param {
    lr_mult: 1
    decay_mult: 1
  }
  param {
    lr_mult: 2
    decay_mult: 0
  }
  convolution_param {
    num_output: 256
    kernel_size: 5
    weight_filler {
      type: "gaussian"
      std: 0.01
    }
    bias_filler {
      type: "constant"
      value: 1
    }
  }
}
layer {
  name: "relu2"
  type: "ReLU"
  bottom: "conv2"
  top: "conv2"
}
layer {
  name: "pool2"
  type: "Pooling"
  bottom: "conv2"
  top: "pool2"
  pooling_param {
    pool: MAX
    kernel_size: 2
    stride: 2
  }
}
layer {
  name: "conv3"
  type: "Convolution"
  bottom: "pool2"
  top: "conv3"
  param {
    lr_mult: 1
    decay_mult: 1
  }
  param {
    lr_mult: 2
    decay_mult: 0
  }
  convolution_param {
    num_output: 512
    pad: 1
    kernel_size: 3
    weight_filler {
      type: "gaussian"
      std: 0.01
    }
    bias_filler {
      type: "constant"
      value: 1
    }
  }
}
layer {
  name: "relu3"
  type: "ReLU"
  bottom: "conv3"
  top: "conv3"
}
layer {
  name: "conv4"
  type: "Convolution"
  bottom: "conv3"
  top: "conv4"
  param {
    lr_mult: 1
    decay_mult: 1
  }
  param {
    lr_mult: 2
    decay_mult: 0
  }
  convolution_param {
    num_output: 512
    pad: 1
    kernel_size: 3
    weight_filler {
      type: "gaussian"
      std: 0.01
    }
    bias_filler {
      type: "constant"
      value: 1
    }
  }
}
layer {
  name: "relu4"
  type: "ReLU"
  bottom: "conv4"
  top: "conv4"
}
layer {
  name: "conv5"
  type: "Convolution"
  bottom: "conv4"
  top: "conv5"
  param {
    lr_mult: 1
    decay_mult: 1
  }
  param {
    lr_mult: 2
    decay_mult: 0
  }
  convolution_param {
    num_output: 512
    pad: 1
    kernel_size: 3
    weight_filler {
      type: "gaussian"
      std: 0.005
    }
    bias_filler {
      type: "constant"
      value: 1
    }
  }
}
layer {
  name: "relu5"
  type: "ReLU"
  bottom: "conv5"
  top: "conv5"
}
layer {
  name: "pool5"
  type: "Pooling"
  bottom: "conv5"
  top: "pool5"
  pooling_param {
    pool: MAX
    kernel_size: 3
    stride: 3
  }
}
layer {
  name: "fc6"
  type: "InnerProduct"
  bottom: "pool5"
  top: "fc6"
  inner_product_param {
    num_output: 4096
  }
}
layer {
  name: "relu6"
  type: "ReLU"
  bottom: "fc6"
  top: "fc6"
}
layer {
  name: "drop6"
  type: "Dropout"
  bottom: "fc6"
  top: "fc6"
  dropout_param {
    dropout_ratio: 0.5
  }
}
layer {
  name: "fc7"
  type: "InnerProduct"
  bottom: "fc6"
  top: "fc7"
  inner_product_param {
    num_output: 4096
  }
}
layer {
  name: "relu7"
  type: "ReLU"
  bottom: "fc7"
  top: "fc7"
}
layer {
  name: "drop7"
  type: "Dropout"
  bottom: "fc7"
  top: "fc7"
  dropout_param {
    dropout_ratio: 0.5
  }
}
layer {
  name: "fc8_oxford102"
  type: "InnerProduct"
  bottom: "fc7"
  top: "fc8_oxford102"
  param {
    lr_mult: 10
    decay_mult: 1
  }
  param {
    lr_mult: 20
    decay_mult: 0
  }
  inner_product_param {
    num_output: 102
    weight_filler {
      type: "gaussian"
      std: 0.01
    }
    bias_filler {
      type: "constant"
      value: 0
    }
  }
}
layer {
  name: "loss"
  type: "SoftmaxWithLoss"
  bottom: "fc8_oxford102"
  bottom: "label"
}
I0919 17:45:11.347904 78103 layer_factory.hpp:74] Creating layer data
I0919 17:45:11.347930 78103 net.cpp:84] Creating Layer data
I0919 17:45:11.347944 78103 net.cpp:338] data -> data
I0919 17:45:11.347970 78103 net.cpp:338] data -> label
I0919 17:45:11.347985 78103 net.cpp:113] Setting up data
I0919 17:45:11.347996 78103 image_data_layer.cpp:36] Opening file /home/ubuntu/git/caffe-oxford102/test.txt
I0919 17:45:11.350972 78103 image_data_layer.cpp:51] A total of 6149 images.
I0919 17:45:11.359051 78103 image_data_layer.cpp:80] output data size: 50,3,224,224
I0919 17:45:11.359082 78103 data_transformer.cpp:22] Loading mean file from: /home/ubuntu/caffe/data/ilsvrc12/imagenet_mean.binaryproto
I0919 17:45:11.368163 78103 net.cpp:120] Top shape: 50 3 224 224 (7526400)
I0919 17:45:11.368196 78103 net.cpp:120] Top shape: 50 (50)
I0919 17:45:11.368208 78103 layer_factory.hpp:74] Creating layer conv1
I0919 17:45:11.368235 78103 net.cpp:84] Creating Layer conv1
I0919 17:45:11.368245 78103 net.cpp:380] conv1 <- data
I0919 17:45:11.368263 78103 net.cpp:338] conv1 -> conv1
I0919 17:45:11.368278 78103 net.cpp:113] Setting up conv1
I0919 17:45:11.441753 78103 net.cpp:120] Top shape: 50 96 109 109 (57028800)
I0919 17:45:11.441809 78103 layer_factory.hpp:74] Creating layer relu1
I0919 17:45:11.441828 78103 net.cpp:84] Creating Layer relu1
I0919 17:45:11.441835 78103 net.cpp:380] relu1 <- conv1
I0919 17:45:11.441848 78103 net.cpp:327] relu1 -> conv1 (in-place)
I0919 17:45:11.441859 78103 net.cpp:113] Setting up relu1
I0919 17:45:11.442013 78103 net.cpp:120] Top shape: 50 96 109 109 (57028800)
I0919 17:45:11.442024 78103 layer_factory.hpp:74] Creating layer norm1
I0919 17:45:11.442040 78103 net.cpp:84] Creating Layer norm1
I0919 17:45:11.442047 78103 net.cpp:380] norm1 <- conv1
I0919 17:45:11.442057 78103 net.cpp:338] norm1 -> norm1
I0919 17:45:11.442067 78103 net.cpp:113] Setting up norm1
I0919 17:45:11.442081 78103 net.cpp:120] Top shape: 50 96 109 109 (57028800)
I0919 17:45:11.442088 78103 layer_factory.hpp:74] Creating layer pool1
I0919 17:45:11.442102 78103 net.cpp:84] Creating Layer pool1
I0919 17:45:11.442111 78103 net.cpp:380] pool1 <- norm1
I0919 17:45:11.442118 78103 net.cpp:338] pool1 -> pool1
I0919 17:45:11.442128 78103 net.cpp:113] Setting up pool1
I0919 17:45:11.442209 78103 net.cpp:120] Top shape: 50 96 37 37 (6571200)
I0919 17:45:11.442219 78103 layer_factory.hpp:74] Creating layer conv2
I0919 17:45:11.442232 78103 net.cpp:84] Creating Layer conv2
I0919 17:45:11.442239 78103 net.cpp:380] conv2 <- pool1
I0919 17:45:11.442250 78103 net.cpp:338] conv2 -> conv2
I0919 17:45:11.442260 78103 net.cpp:113] Setting up conv2
I0919 17:45:11.462411 78103 net.cpp:120] Top shape: 50 256 33 33 (13939200)
I0919 17:45:11.462434 78103 layer_factory.hpp:74] Creating layer relu2
I0919 17:45:11.462456 78103 net.cpp:84] Creating Layer relu2
I0919 17:45:11.462465 78103 net.cpp:380] relu2 <- conv2
I0919 17:45:11.462473 78103 net.cpp:327] relu2 -> conv2 (in-place)
I0919 17:45:11.462482 78103 net.cpp:113] Setting up relu2
I0919 17:45:11.462530 78103 net.cpp:120] Top shape: 50 256 33 33 (13939200)
I0919 17:45:11.462539 78103 layer_factory.hpp:74] Creating layer pool2
I0919 17:45:11.462549 78103 net.cpp:84] Creating Layer pool2
I0919 17:45:11.462555 78103 net.cpp:380] pool2 <- conv2
I0919 17:45:11.462564 78103 net.cpp:338] pool2 -> pool2
I0919 17:45:11.462573 78103 net.cpp:113] Setting up pool2
I0919 17:45:11.462709 78103 net.cpp:120] Top shape: 50 256 17 17 (3699200)
I0919 17:45:11.462721 78103 layer_factory.hpp:74] Creating layer conv3
I0919 17:45:11.462734 78103 net.cpp:84] Creating Layer conv3
I0919 17:45:11.462741 78103 net.cpp:380] conv3 <- pool2
I0919 17:45:11.462751 78103 net.cpp:338] conv3 -> conv3
I0919 17:45:11.462761 78103 net.cpp:113] Setting up conv3
I0919 17:45:11.501523 78103 net.cpp:120] Top shape: 50 512 17 17 (7398400)
I0919 17:45:11.501548 78103 layer_factory.hpp:74] Creating layer relu3
I0919 17:45:11.501557 78103 net.cpp:84] Creating Layer relu3
I0919 17:45:11.501564 78103 net.cpp:380] relu3 <- conv3
I0919 17:45:11.501574 78103 net.cpp:327] relu3 -> conv3 (in-place)
I0919 17:45:11.501582 78103 net.cpp:113] Setting up relu3
I0919 17:45:11.501631 78103 net.cpp:120] Top shape: 50 512 17 17 (7398400)
I0919 17:45:11.501642 78103 layer_factory.hpp:74] Creating layer conv4
I0919 17:45:11.501654 78103 net.cpp:84] Creating Layer conv4
I0919 17:45:11.501662 78103 net.cpp:380] conv4 <- conv3
I0919 17:45:11.501670 78103 net.cpp:338] conv4 -> conv4
I0919 17:45:11.501682 78103 net.cpp:113] Setting up conv4
I0919 17:45:11.579048 78103 net.cpp:120] Top shape: 50 512 17 17 (7398400)
I0919 17:45:11.579084 78103 layer_factory.hpp:74] Creating layer relu4
I0919 17:45:11.579098 78103 net.cpp:84] Creating Layer relu4
I0919 17:45:11.579105 78103 net.cpp:380] relu4 <- conv4
I0919 17:45:11.579115 78103 net.cpp:327] relu4 -> conv4 (in-place)
I0919 17:45:11.579125 78103 net.cpp:113] Setting up relu4
I0919 17:45:11.579180 78103 net.cpp:120] Top shape: 50 512 17 17 (7398400)
I0919 17:45:11.579188 78103 layer_factory.hpp:74] Creating layer conv5
I0919 17:45:11.579200 78103 net.cpp:84] Creating Layer conv5
I0919 17:45:11.579206 78103 net.cpp:380] conv5 <- conv4
I0919 17:45:11.579217 78103 net.cpp:338] conv5 -> conv5
I0919 17:45:11.579227 78103 net.cpp:113] Setting up conv5
I0919 17:45:11.656090 78103 net.cpp:120] Top shape: 50 512 17 17 (7398400)
I0919 17:45:11.656128 78103 layer_factory.hpp:74] Creating layer relu5
I0919 17:45:11.656141 78103 net.cpp:84] Creating Layer relu5
I0919 17:45:11.656149 78103 net.cpp:380] relu5 <- conv5
I0919 17:45:11.656160 78103 net.cpp:327] relu5 -> conv5 (in-place)
I0919 17:45:11.656170 78103 net.cpp:113] Setting up relu5
I0919 17:45:11.656221 78103 net.cpp:120] Top shape: 50 512 17 17 (7398400)
I0919 17:45:11.656231 78103 layer_factory.hpp:74] Creating layer pool5
I0919 17:45:11.656244 78103 net.cpp:84] Creating Layer pool5
I0919 17:45:11.656250 78103 net.cpp:380] pool5 <- conv5
I0919 17:45:11.656260 78103 net.cpp:338] pool5 -> pool5
I0919 17:45:11.656270 78103 net.cpp:113] Setting up pool5
I0919 17:45:11.656420 78103 net.cpp:120] Top shape: 50 512 6 6 (921600)
I0919 17:45:11.656433 78103 layer_factory.hpp:74] Creating layer fc6
I0919 17:45:11.656451 78103 net.cpp:84] Creating Layer fc6
I0919 17:45:11.656458 78103 net.cpp:380] fc6 <- pool5
I0919 17:45:11.656468 78103 net.cpp:338] fc6 -> fc6
I0919 17:45:11.656479 78103 net.cpp:113] Setting up fc6
I0919 17:45:11.759053 78103 net.cpp:120] Top shape: 50 4096 (204800)
I0919 17:45:11.759114 78103 layer_factory.hpp:74] Creating layer relu6
I0919 17:45:11.759135 78103 net.cpp:84] Creating Layer relu6
I0919 17:45:11.759150 78103 net.cpp:380] relu6 <- fc6
I0919 17:45:11.759161 78103 net.cpp:327] relu6 -> fc6 (in-place)
I0919 17:45:11.759191 78103 net.cpp:113] Setting up relu6
I0919 17:45:11.759335 78103 net.cpp:120] Top shape: 50 4096 (204800)
I0919 17:45:11.759347 78103 layer_factory.hpp:74] Creating layer drop6
I0919 17:45:11.759366 78103 net.cpp:84] Creating Layer drop6
I0919 17:45:11.759372 78103 net.cpp:380] drop6 <- fc6
I0919 17:45:11.759382 78103 net.cpp:327] drop6 -> fc6 (in-place)
I0919 17:45:11.759390 78103 net.cpp:113] Setting up drop6
I0919 17:45:11.759407 78103 net.cpp:120] Top shape: 50 4096 (204800)
I0919 17:45:11.759413 78103 layer_factory.hpp:74] Creating layer fc7
I0919 17:45:11.759423 78103 net.cpp:84] Creating Layer fc7
I0919 17:45:11.759430 78103 net.cpp:380] fc7 <- fc6
I0919 17:45:11.759439 78103 net.cpp:338] fc7 -> fc7
I0919 17:45:11.759450 78103 net.cpp:113] Setting up fc7
I0919 17:45:11.785137 78103 net.cpp:120] Top shape: 50 4096 (204800)
I0919 17:45:11.785194 78103 layer_factory.hpp:74] Creating layer relu7
I0919 17:45:11.785212 78103 net.cpp:84] Creating Layer relu7
I0919 17:45:11.785220 78103 net.cpp:380] relu7 <- fc7
I0919 17:45:11.785233 78103 net.cpp:327] relu7 -> fc7 (in-place)
I0919 17:45:11.785243 78103 net.cpp:113] Setting up relu7
I0919 17:45:11.785352 78103 net.cpp:120] Top shape: 50 4096 (204800)
I0919 17:45:11.785362 78103 layer_factory.hpp:74] Creating layer drop7
I0919 17:45:11.785374 78103 net.cpp:84] Creating Layer drop7
I0919 17:45:11.785382 78103 net.cpp:380] drop7 <- fc7
I0919 17:45:11.785389 78103 net.cpp:327] drop7 -> fc7 (in-place)
I0919 17:45:11.785399 78103 net.cpp:113] Setting up drop7
I0919 17:45:11.785408 78103 net.cpp:120] Top shape: 50 4096 (204800)
I0919 17:45:11.785415 78103 layer_factory.hpp:74] Creating layer fc8_oxford102
I0919 17:45:11.785426 78103 net.cpp:84] Creating Layer fc8_oxford102
I0919 17:45:11.785434 78103 net.cpp:380] fc8_oxford102 <- fc7
I0919 17:45:11.785444 78103 net.cpp:338] fc8_oxford102 -> fc8_oxford102
I0919 17:45:11.785455 78103 net.cpp:113] Setting up fc8_oxford102
I0919 17:45:11.799310 78103 net.cpp:120] Top shape: 50 102 (5100)
I0919 17:45:11.799329 78103 layer_factory.hpp:74] Creating layer loss
I0919 17:45:11.799345 78103 net.cpp:84] Creating Layer loss
I0919 17:45:11.799351 78103 net.cpp:380] loss <- fc8_oxford102
I0919 17:45:11.799360 78103 net.cpp:380] loss <- label
I0919 17:45:11.799374 78103 net.cpp:338] loss -> (automatic)
I0919 17:45:11.799383 78103 net.cpp:113] Setting up loss
I0919 17:45:11.799396 78103 layer_factory.hpp:74] Creating layer loss
…
I0919 17:45:11.800673 78103 net.cpp:257] The NetState phase (1) differed from the phase (0) specified by a rule in layer data
I0919 17:45:11.800874 78103 net.cpp:42] Initializing net from parameters: 
name: "Oxford102_VGG_CNN_S"
state {
  phase: TEST
}
layer {
  name: "data"
  type: "ImageData"
  top: "data"
  top: "label"
  include {
    phase: TEST
  }
  transform_param {
    mirror: false
    crop_size: 224
    mean_file: "/home/ubuntu/caffe/data/ilsvrc12/imagenet_mean.binaryproto"
  }
  image_data_param {
    source: "/home/ubuntu/git/caffe-oxford102/train.txt"
    batch_size: 50
    new_height: 256
    new_width: 256
  }
}
layer {
  name: "conv1"
  type: "Convolution"
  bottom: "data"
  top: "conv1"
  param {
    lr_mult: 1
    decay_mult: 1
  }
  param {
    lr_mult: 2
    decay_mult: 0
  }
  convolution_param {
    num_output: 96
    kernel_size: 7
    stride: 2
    weight_filler {
      type: "gaussian"
      std: 0.01
    }
    bias_filler {
      type: "constant"
      value: 0
    }
  }
}
layer {
  name: "relu1"
  type: "ReLU"
  bottom: "conv1"
  top: "conv1"
}
layer {
  name: "norm1"
  type: "LRN"
  bottom: "conv1"
  top: "norm1"
  lrn_param {
    local_size: 5
    alpha: 0.0005
    beta: 0.75
    k: 2
  }
}
layer {
  name: "pool1"
  type: "Pooling"
  bottom: "norm1"
  top: "pool1"
  pooling_param {
    pool: MAX
    kernel_size: 3
    stride: 3
  }
}
layer {
  name: "conv2"
  type: "Convolution"
  bottom: "pool1"
  top: "conv2"
  param {
    lr_mult: 1
    decay_mult: 1
  }
  param {
    lr_mult: 2
    decay_mult: 0
  }
  convolution_param {
    num_output: 256
    kernel_size: 5
    weight_filler {
      type: "gaussian"
      std: 0.01
    }
    bias_filler {
      type: "constant"
      value: 1
    }
  }
}
layer {
  name: "relu2"
  type: "ReLU"
  bottom: "conv2"
  top: "conv2"
}
layer {
  name: "pool2"
  type: "Pooling"
  bottom: "conv2"
  top: "pool2"
  pooling_param {
    pool: MAX
    kernel_size: 2
    stride: 2
  }
}
layer {
  name: "conv3"
  type: "Convolution"
  bottom: "pool2"
  top: "conv3"
  param {
    lr_mult: 1
    decay_mult: 1
  }
  param {
    lr_mult: 2
    decay_mult: 0
  }
  convolution_param {
    num_output: 512
    pad: 1
    kernel_size: 3
    weight_filler {
      type: "gaussian"
      std: 0.01
    }
    bias_filler {
      type: "constant"
      value: 1
    }
  }
}
layer {
  name: "relu3"
  type: "ReLU"
  bottom: "conv3"
  top: "conv3"
}
layer {
  name: "conv4"
  type: "Convolution"
  bottom: "conv3"
  top: "conv4"
  param {
    lr_mult: 1
    decay_mult: 1
  }
  param {
    lr_mult: 2
    decay_mult: 0
  }
  convolution_param {
    num_output: 512
    pad: 1
    kernel_size: 3
    weight_filler {
      type: "gaussian"
      std: 0.01
    }
    bias_filler {
      type: "constant"
      value: 1
    }
  }
}
layer {
  name: "relu4"
  type: "ReLU"
  bottom: "conv4"
  top: "conv4"
}
layer {
  name: "conv5"
  type: "Convolution"
  bottom: "conv4"
  top: "conv5"
  param {
    lr_mult: 1
    decay_mult: 1
  }
  param {
    lr_mult: 2
    decay_mult: 0
  }
  convolution_param {
    num_output: 512
    pad: 1
    kernel_size: 3
    weight_filler {
      type: "gaussian"
      std: 0.005
    }
    bias_filler {
      type: "constant"
      value: 1
    }
  }
}
layer {
  name: "relu5"
  type: "ReLU"
  bottom: "conv5"
  top: "conv5"
}
layer {
  name: "pool5"
  type: "Pooling"
  bottom: "conv5"
  top: "pool5"
  pooling_param {
    pool: MAX
    kernel_size: 3
    stride: 3
  }
}
layer {
  name: "fc6"
  type: "InnerProduct"
  bottom: "pool5"
  top: "fc6"
  inner_product_param {
    num_output: 4096
  }
}
layer {
  name: "relu6"
  type: "ReLU"
  bottom: "fc6"
  top: "fc6"
}
layer {
  name: "drop6"
  type: "Dropout"
  bottom: "fc6"
  top: "fc6"
  dropout_param {
    dropout_ratio: 0.5
  }
}
layer {
  name: "fc7"
  type: "InnerProduct"
  bottom: "fc6"
  top: "fc7"
  inner_product_param {
    num_output: 4096
  }
}
layer {
  name: "relu7"
  type: "ReLU"
  bottom: "fc7"
  top: "fc7"
}
layer {
  name: "drop7"
  type: "Dropout"
  bottom: "fc7"
  top: "fc7"
  dropout_param {
    dropout_ratio: 0.5
  }
}
layer {
  name: "fc8_oxford102"
  type: "InnerProduct"
  bottom: "fc7"
  top: "fc8_oxford102"
  param {
    lr_mult: 10
    decay_mult: 1
  }
  param {
    lr_mult: 20
    decay_mult: 0
  }
  inner_product_param {
    num_output: 102
    weight_filler {
      type: "gaussian"
      std: 0.01
    }
    bias_filler {
      type: "constant"
      value: 0
    }
  }
}
layer {
  name: "loss"
  type: "SoftmaxWithLoss"
  bottom: "fc8_oxford102"
  bottom: "label"
}
layer {
  name: "accuracy"
  type: "Accuracy"
  bottom: "fc8_oxford102"
  bottom: "label"
  top: "accuracy"
  include {
    phase: TEST
  }
}
I0919 17:45:11.801007 78103 layer_factory.hpp:74] Creating layer data
I0919 17:45:11.801023 78103 net.cpp:84] Creating Layer data
I0919 17:45:11.801033 78103 net.cpp:338] data -> data
I0919 17:45:11.801044 78103 net.cpp:338] data -> label
I0919 17:45:11.801054 78103 net.cpp:113] Setting up data
I0919 17:45:11.801061 78103 image_data_layer.cpp:36] Opening file /home/ubuntu/git/caffe-oxford102/train.txt
I0919 17:45:11.801549 78103 image_data_layer.cpp:51] A total of 1020 images.
I0919 17:45:11.805374 78103 image_data_layer.cpp:80] output data size: 50,3,224,224
I0919 17:45:11.805397 78103 data_transformer.cpp:22] Loading mean file from: /home/ubuntu/caffe/data/ilsvrc12/imagenet_mean.binaryproto
I0919 17:45:11.814618 78103 net.cpp:120] Top shape: 50 3 224 224 (7526400)
I0919 17:45:11.814661 78103 net.cpp:120] Top shape: 50 (50)
I0919 17:45:11.814672 78103 layer_factory.hpp:74] Creating layer label_data_1_split
I0919 17:45:11.814693 78103 net.cpp:84] Creating Layer label_data_1_split
I0919 17:45:11.814702 78103 net.cpp:380] label_data_1_split <- label
I0919 17:45:11.814713 78103 net.cpp:338] label_data_1_split -> label_data_1_split_0
I0919 17:45:11.814729 78103 net.cpp:338] label_data_1_split -> label_data_1_split_1
I0919 17:45:11.814738 78103 net.cpp:113] Setting up label_data_1_split
I0919 17:45:11.814755 78103 net.cpp:120] Top shape: 50 (50)
I0919 17:45:11.814764 78103 net.cpp:120] Top shape: 50 (50)
I0919 17:45:11.814769 78103 layer_factory.hpp:74] Creating layer conv1
I0919 17:45:11.814785 78103 net.cpp:84] Creating Layer conv1
I0919 17:45:11.814792 78103 net.cpp:380] conv1 <- data
I0919 17:45:11.814802 78103 net.cpp:338] conv1 -> conv1
I0919 17:45:11.814813 78103 net.cpp:113] Setting up conv1
I0919 17:45:11.815742 78103 net.cpp:120] Top shape: 50 96 109 109 (57028800)
I0919 17:45:11.815765 78103 layer_factory.hpp:74] Creating layer relu1
I0919 17:45:11.815776 78103 net.cpp:84] Creating Layer relu1
I0919 17:45:11.815783 78103 net.cpp:380] relu1 <- conv1
I0919 17:45:11.815793 78103 net.cpp:327] relu1 -> conv1 (in-place)
I0919 17:45:11.815801 78103 net.cpp:113] Setting up relu1
I0919 17:45:11.815944 78103 net.cpp:120] Top shape: 50 96 109 109 (57028800)
I0919 17:45:11.815956 78103 layer_factory.hpp:74] Creating layer norm1
I0919 17:45:11.815970 78103 net.cpp:84] Creating Layer norm1
I0919 17:45:11.815978 78103 net.cpp:380] norm1 <- conv1
I0919 17:45:11.815987 78103 net.cpp:338] norm1 -> norm1
I0919 17:45:11.815996 78103 net.cpp:113] Setting up norm1
I0919 17:45:11.816007 78103 net.cpp:120] Top shape: 50 96 109 109 (57028800)
I0919 17:45:11.816015 78103 layer_factory.hpp:74] Creating layer pool1
I0919 17:45:11.816040 78103 net.cpp:84] Creating Layer pool1
I0919 17:45:11.816057 78103 net.cpp:380] pool1 <- norm1
I0919 17:45:11.816066 78103 net.cpp:338] pool1 -> pool1
I0919 17:45:11.816076 78103 net.cpp:113] Setting up pool1
I0919 17:45:11.816134 78103 net.cpp:120] Top shape: 50 96 37 37 (6571200)
I0919 17:45:11.816143 78103 layer_factory.hpp:74] Creating layer conv2
I0919 17:45:11.816155 78103 net.cpp:84] Creating Layer conv2
I0919 17:45:11.816161 78103 net.cpp:380] conv2 <- pool1
I0919 17:45:11.816171 78103 net.cpp:338] conv2 -> conv2
I0919 17:45:11.816181 78103 net.cpp:113] Setting up conv2
I0919 17:45:11.836743 78103 net.cpp:120] Top shape: 50 256 33 33 (13939200)
I0919 17:45:11.836767 78103 layer_factory.hpp:74] Creating layer relu2
I0919 17:45:11.836778 78103 net.cpp:84] Creating Layer relu2
I0919 17:45:11.836786 78103 net.cpp:380] relu2 <- conv2
I0919 17:45:11.836794 78103 net.cpp:327] relu2 -> conv2 (in-place)
I0919 17:45:11.836803 78103 net.cpp:113] Setting up relu2
I0919 17:45:11.836871 78103 net.cpp:120] Top shape: 50 256 33 33 (13939200)
I0919 17:45:11.836882 78103 layer_factory.hpp:74] Creating layer pool2
I0919 17:45:11.836895 78103 net.cpp:84] Creating Layer pool2
I0919 17:45:11.836901 78103 net.cpp:380] pool2 <- conv2
I0919 17:45:11.836910 78103 net.cpp:338] pool2 -> pool2
I0919 17:45:11.836920 78103 net.cpp:113] Setting up pool2
I0919 17:45:11.836977 78103 net.cpp:120] Top shape: 50 256 17 17 (3699200)
I0919 17:45:11.836985 78103 layer_factory.hpp:74] Creating layer conv3
I0919 17:45:11.836997 78103 net.cpp:84] Creating Layer conv3
I0919 17:45:11.837004 78103 net.cpp:380] conv3 <- pool2
I0919 17:45:11.837013 78103 net.cpp:338] conv3 -> conv3
I0919 17:45:11.837023 78103 net.cpp:113] Setting up conv3
I0919 17:45:11.875923 78103 net.cpp:120] Top shape: 50 512 17 17 (7398400)
I0919 17:45:11.875973 78103 layer_factory.hpp:74] Creating layer relu3
I0919 17:45:11.875989 78103 net.cpp:84] Creating Layer relu3
I0919 17:45:11.875998 78103 net.cpp:380] relu3 <- conv3
I0919 17:45:11.876008 78103 net.cpp:327] relu3 -> conv3 (in-place)
I0919 17:45:11.876021 78103 net.cpp:113] Setting up relu3
I0919 17:45:11.876165 78103 net.cpp:120] Top shape: 50 512 17 17 (7398400)
I0919 17:45:11.876178 78103 layer_factory.hpp:74] Creating layer conv4
I0919 17:45:11.876191 78103 net.cpp:84] Creating Layer conv4
I0919 17:45:11.876198 78103 net.cpp:380] conv4 <- conv3
I0919 17:45:11.876209 78103 net.cpp:338] conv4 -> conv4
I0919 17:45:11.876220 78103 net.cpp:113] Setting up conv4
I0919 17:45:11.953996 78103 net.cpp:120] Top shape: 50 512 17 17 (7398400)
I0919 17:45:11.954042 78103 layer_factory.hpp:74] Creating layer relu4
I0919 17:45:11.954059 78103 net.cpp:84] Creating Layer relu4
I0919 17:45:11.954067 78103 net.cpp:380] relu4 <- conv4
I0919 17:45:11.954079 78103 net.cpp:327] relu4 -> conv4 (in-place)
I0919 17:45:11.954090 78103 net.cpp:113] Setting up relu4
I0919 17:45:11.954147 78103 net.cpp:120] Top shape: 50 512 17 17 (7398400)
I0919 17:45:11.954157 78103 layer_factory.hpp:74] Creating layer conv5
I0919 17:45:11.954174 78103 net.cpp:84] Creating Layer conv5
I0919 17:45:11.954180 78103 net.cpp:380] conv5 <- conv4
I0919 17:45:11.954191 78103 net.cpp:338] conv5 -> conv5
I0919 17:45:11.954202 78103 net.cpp:113] Setting up conv5
I0919 17:45:12.032008 78103 net.cpp:120] Top shape: 50 512 17 17 (7398400)
I0919 17:45:12.032052 78103 layer_factory.hpp:74] Creating layer relu5
I0919 17:45:12.032068 78103 net.cpp:84] Creating Layer relu5
I0919 17:45:12.032076 78103 net.cpp:380] relu5 <- conv5
I0919 17:45:12.032088 78103 net.cpp:327] relu5 -> conv5 (in-place)
I0919 17:45:12.032099 78103 net.cpp:113] Setting up relu5
I0919 17:45:12.032160 78103 net.cpp:120] Top shape: 50 512 17 17 (7398400)
I0919 17:45:12.032168 78103 layer_factory.hpp:74] Creating layer pool5
I0919 17:45:12.032181 78103 net.cpp:84] Creating Layer pool5
I0919 17:45:12.032187 78103 net.cpp:380] pool5 <- conv5
I0919 17:45:12.032197 78103 net.cpp:338] pool5 -> pool5
I0919 17:45:12.032207 78103 net.cpp:113] Setting up pool5
I0919 17:45:12.032369 78103 net.cpp:120] Top shape: 50 512 6 6 (921600)
I0919 17:45:12.032382 78103 layer_factory.hpp:74] Creating layer fc6
I0919 17:45:12.032413 78103 net.cpp:84] Creating Layer fc6
I0919 17:45:12.032420 78103 net.cpp:380] fc6 <- pool5
I0919 17:45:12.032429 78103 net.cpp:338] fc6 -> fc6
I0919 17:45:12.032440 78103 net.cpp:113] Setting up fc6
I0919 17:45:12.135733 78103 net.cpp:120] Top shape: 50 4096 (204800)
I0919 17:45:12.135783 78103 layer_factory.hpp:74] Creating layer relu6
I0919 17:45:12.135800 78103 net.cpp:84] Creating Layer relu6
I0919 17:45:12.135809 78103 net.cpp:380] relu6 <- fc6
I0919 17:45:12.135820 78103 net.cpp:327] relu6 -> fc6 (in-place)
I0919 17:45:12.135833 78103 net.cpp:113] Setting up relu6
I0919 17:45:12.135937 78103 net.cpp:120] Top shape: 50 4096 (204800)
I0919 17:45:12.135947 78103 layer_factory.hpp:74] Creating layer drop6
I0919 17:45:12.135959 78103 net.cpp:84] Creating Layer drop6
I0919 17:45:12.135968 78103 net.cpp:380] drop6 <- fc6
I0919 17:45:12.135978 78103 net.cpp:327] drop6 -> fc6 (in-place)
I0919 17:45:12.135987 78103 net.cpp:113] Setting up drop6
I0919 17:45:12.135998 78103 net.cpp:120] Top shape: 50 4096 (204800)
I0919 17:45:12.136003 78103 layer_factory.hpp:74] Creating layer fc7
I0919 17:45:12.136014 78103 net.cpp:84] Creating Layer fc7
I0919 17:45:12.136020 78103 net.cpp:380] fc7 <- fc6
I0919 17:45:12.136030 78103 net.cpp:338] fc7 -> fc7
I0919 17:45:12.136041 78103 net.cpp:113] Setting up fc7
I0919 17:45:12.160687 78103 net.cpp:120] Top shape: 50 4096 (204800)
I0919 17:45:12.160740 78103 layer_factory.hpp:74] Creating layer relu7
I0919 17:45:12.160756 78103 net.cpp:84] Creating Layer relu7
I0919 17:45:12.160765 78103 net.cpp:380] relu7 <- fc7
I0919 17:45:12.160776 78103 net.cpp:327] relu7 -> fc7 (in-place)
I0919 17:45:12.160789 78103 net.cpp:113] Setting up relu7
I0919 17:45:12.160900 78103 net.cpp:120] Top shape: 50 4096 (204800)
I0919 17:45:12.160909 78103 layer_factory.hpp:74] Creating layer drop7
I0919 17:45:12.160922 78103 net.cpp:84] Creating Layer drop7
I0919 17:45:12.160928 78103 net.cpp:380] drop7 <- fc7
I0919 17:45:12.160936 78103 net.cpp:327] drop7 -> fc7 (in-place)
I0919 17:45:12.160944 78103 net.cpp:113] Setting up drop7
I0919 17:45:12.160954 78103 net.cpp:120] Top shape: 50 4096 (204800)
I0919 17:45:12.160960 78103 layer_factory.hpp:74] Creating layer fc8_oxford102
I0919 17:45:12.160974 78103 net.cpp:84] Creating Layer fc8_oxford102
I0919 17:45:12.160979 78103 net.cpp:380] fc8_oxford102 <- fc7
I0919 17:45:12.160989 78103 net.cpp:338] fc8_oxford102 -> fc8_oxford102
I0919 17:45:12.161001 78103 net.cpp:113] Setting up fc8_oxford102
I0919 17:45:12.174669 78103 net.cpp:120] Top shape: 50 102 (5100)
I0919 17:45:12.174686 78103 layer_factory.hpp:74] Creating layer fc8_oxford102_fc8_oxford102_0_split
I0919 17:45:12.174700 78103 net.cpp:84] Creating Layer fc8_oxford102_fc8_oxford102_0_split
I0919 17:45:12.174706 78103 net.cpp:380] fc8_oxford102_fc8_oxford102_0_split <- fc8_oxford102
I0919 17:45:12.174715 78103 net.cpp:338] fc8_oxford102_fc8_oxford102_0_split -> fc8_oxford102_fc8_oxford102_0_split_0
I0919 17:45:12.174728 78103 net.cpp:338] fc8_oxford102_fc8_oxford102_0_split -> fc8_oxford102_fc8_oxford102_0_split_1
I0919 17:45:12.174738 78103 net.cpp:113] Setting up fc8_oxford102_fc8_oxford102_0_split
I0919 17:45:12.174748 78103 net.cpp:120] Top shape: 50 102 (5100)
I0919 17:45:12.174756 78103 net.cpp:120] Top shape: 50 102 (5100)
I0919 17:45:12.174762 78103 layer_factory.hpp:74] Creating layer loss
I0919 17:45:12.174772 78103 net.cpp:84] Creating Layer loss
I0919 17:45:12.174778 78103 net.cpp:380] loss <- fc8_oxford102_fc8_oxford102_0_split_0
I0919 17:45:12.174785 78103 net.cpp:380] loss <- label_data_1_split_0
I0919 17:45:12.174794 78103 net.cpp:338] loss -> (automatic)
I0919 17:45:12.174801 78103 net.cpp:113] Setting up loss
…
