…
I0917 22:17:10.487750 68176 net.cpp:257] The NetState phase (0) differed from the phase (1) specified by a rule in layer accuracy
I0917 22:17:10.487936 68176 net.cpp:42] Initializing net from parameters: 
name: "Oxford102_VGG_CNN_S"
state {
  phase: TRAIN
}
layer {
  name: "data"
  type: "ImageData"
  top: "data"
  top: "label"
  include {
    phase: TRAIN
  }
  transform_param {
    mirror: true
    crop_size: 224
    mean_file: "/home/ubuntu/caffe/data/ilsvrc12/imagenet_mean.binaryproto"
  }
  image_data_param {
    source: "/home/ubuntu/git/caffe-oxford102/train.txt"
    batch_size: 50
    new_height: 256
    new_width: 256
  }
}
layer {
  name: "conv1"
  type: "Convolution"
  bottom: "data"
  top: "conv1"
  param {
    lr_mult: 1
    decay_mult: 1
  }
  param {
    lr_mult: 2
    decay_mult: 0
  }
  convolution_param {
    num_output: 96
    kernel_size: 7
    stride: 2
    weight_filler {
      type: "gaussian"
      std: 0.01
    }
    bias_filler {
      type: "constant"
      value: 0
    }
  }
}
layer {
  name: "relu1"
  type: "ReLU"
  bottom: "conv1"
  top: "conv1"
}
layer {
  name: "norm1"
  type: "LRN"
  bottom: "conv1"
  top: "norm1"
  lrn_param {
    local_size: 5
    alpha: 0.0005
    beta: 0.75
    k: 2
  }
}
layer {
  name: "pool1"
  type: "Pooling"
  bottom: "norm1"
  top: "pool1"
  pooling_param {
    pool: MAX
    kernel_size: 3
    stride: 3
  }
}
layer {
  name: "conv2"
  type: "Convolution"
  bottom: "pool1"
  top: "conv2"
  param {
    lr_mult: 1
    decay_mult: 1
  }
  param {
    lr_mult: 2
    decay_mult: 0
  }
  convolution_param {
    num_output: 256
    kernel_size: 5
    weight_filler {
      type: "gaussian"
      std: 0.01
    }
    bias_filler {
      type: "constant"
      value: 1
    }
  }
}
layer {
  name: "relu2"
  type: "ReLU"
  bottom: "conv2"
  top: "conv2"
}
layer {
  name: "pool2"
  type: "Pooling"
  bottom: "conv2"
  top: "pool2"
  pooling_param {
    pool: MAX
    kernel_size: 2
    stride: 2
  }
}
layer {
  name: "conv3"
  type: "Convolution"
  bottom: "pool2"
  top: "conv3"
  param {
    lr_mult: 1
    decay_mult: 1
  }
  param {
    lr_mult: 2
    decay_mult: 0
  }
  convolution_param {
    num_output: 512
    pad: 1
    kernel_size: 3
    weight_filler {
      type: "gaussian"
      std: 0.01
    }
    bias_filler {
      type: "constant"
      value: 1
    }
  }
}
layer {
  name: "relu3"
  type: "ReLU"
  bottom: "conv3"
  top: "conv3"
}
layer {
  name: "conv4"
  type: "Convolution"
  bottom: "conv3"
  top: "conv4"
  param {
    lr_mult: 1
    decay_mult: 1
  }
  param {
    lr_mult: 2
    decay_mult: 0
  }
  convolution_param {
    num_output: 512
    pad: 1
    kernel_size: 3
    weight_filler {
      type: "gaussian"
      std: 0.01
    }
    bias_filler {
      type: "constant"
      value: 1
    }
  }
}
layer {
  name: "relu4"
  type: "ReLU"
  bottom: "conv4"
  top: "conv4"
}
layer {
  name: "conv5"
  type: "Convolution"
  bottom: "conv4"
  top: "conv5"
  param {
    lr_mult: 1
    decay_mult: 1
  }
  param {
    lr_mult: 2
    decay_mult: 0
  }
  convolution_param {
    num_output: 512
    pad: 1
    kernel_size: 3
    weight_filler {
      type: "gaussian"
      std: 0.005
    }
    bias_filler {
      type: "constant"
      value: 1
    }
  }
}
layer {
  name: "relu5"
  type: "ReLU"
  bottom: "conv5"
  top: "conv5"
}
layer {
  name: "pool5"
  type: "Pooling"
  bottom: "conv5"
  top: "pool5"
  pooling_param {
    pool: MAX
    kernel_size: 3
    stride: 3
  }
}
layer {
  name: "fc6"
  type: "InnerProduct"
  bottom: "pool5"
  top: "fc6"
  inner_product_param {
    num_output: 4096
  }
}
layer {
  name: "relu6"
  type: "ReLU"
  bottom: "fc6"
  top: "fc6"
}
layer {
  name: "drop6"
  type: "Dropout"
  bottom: "fc6"
  top: "fc6"
  dropout_param {
    dropout_ratio: 0.5
  }
}
layer {
  name: "fc7"
  type: "InnerProduct"
  bottom: "fc6"
  top: "fc7"
  inner_product_param {
    num_output: 4096
  }
}
layer {
  name: "relu7"
  type: "ReLU"
  bottom: "fc7"
  top: "fc7"
}
layer {
  name: "drop7"
  type: "Dropout"
  bottom: "fc7"
  top: "fc7"
  dropout_param {
    dropout_ratio: 0.5
  }
}
layer {
  name: "fc8_oxford102"
  type: "InnerProduct"
  bottom: "fc7"
  top: "fc8_oxford102"
  param {
    lr_mult: 10
    decay_mult: 1
  }
  param {
    lr_mult: 20
    decay_mult: 0
  }
  inner_product_param {
    num_output: 102
    weight_filler {
      type: "gaussian"
      std: 0.01
    }
    bias_filler {
      type: "constant"
      value: 0
    }
  }
}
layer {
  name: "loss"
  type: "SoftmaxWithLoss"
  bottom: "fc8_oxford102"
  bottom: "label"
}
I0917 22:17:10.488070 68176 layer_factory.hpp:74] Creating layer data
I0917 22:17:10.488097 68176 net.cpp:84] Creating Layer data
I0917 22:17:10.488111 68176 net.cpp:338] data -> data
I0917 22:17:10.488137 68176 net.cpp:338] data -> label
I0917 22:17:10.488152 68176 net.cpp:113] Setting up data
I0917 22:17:10.488163 68176 image_data_layer.cpp:36] Opening file /home/ubuntu/git/caffe-oxford102/train.txt
I0917 22:17:10.488703 68176 image_data_layer.cpp:51] A total of 1020 images.
I0917 22:17:10.496142 68176 image_data_layer.cpp:80] output data size: 50,3,224,224
I0917 22:17:10.496173 68176 data_transformer.cpp:22] Loading mean file from: /home/ubuntu/caffe/data/ilsvrc12/imagenet_mean.binaryproto
I0917 22:17:10.505228 68176 net.cpp:120] Top shape: 50 3 224 224 (7526400)
I0917 22:17:10.505264 68176 net.cpp:120] Top shape: 50 (50)
I0917 22:17:10.505275 68176 layer_factory.hpp:74] Creating layer conv1
I0917 22:17:10.505303 68176 net.cpp:84] Creating Layer conv1
I0917 22:17:10.505313 68176 net.cpp:380] conv1 <- data
I0917 22:17:10.505331 68176 net.cpp:338] conv1 -> conv1
I0917 22:17:10.505350 68176 net.cpp:113] Setting up conv1
I0917 22:17:10.583448 68176 net.cpp:120] Top shape: 50 96 109 109 (57028800)
I0917 22:17:10.583510 68176 layer_factory.hpp:74] Creating layer relu1
I0917 22:17:10.583531 68176 net.cpp:84] Creating Layer relu1
I0917 22:17:10.583539 68176 net.cpp:380] relu1 <- conv1
I0917 22:17:10.583550 68176 net.cpp:327] relu1 -> conv1 (in-place)
I0917 22:17:10.583562 68176 net.cpp:113] Setting up relu1
I0917 22:17:10.583719 68176 net.cpp:120] Top shape: 50 96 109 109 (57028800)
I0917 22:17:10.583731 68176 layer_factory.hpp:74] Creating layer norm1
I0917 22:17:10.583747 68176 net.cpp:84] Creating Layer norm1
I0917 22:17:10.583755 68176 net.cpp:380] norm1 <- conv1
I0917 22:17:10.583765 68176 net.cpp:338] norm1 -> norm1
I0917 22:17:10.583775 68176 net.cpp:113] Setting up norm1
I0917 22:17:10.583787 68176 net.cpp:120] Top shape: 50 96 109 109 (57028800)
I0917 22:17:10.583794 68176 layer_factory.hpp:74] Creating layer pool1
I0917 22:17:10.583811 68176 net.cpp:84] Creating Layer pool1
I0917 22:17:10.583817 68176 net.cpp:380] pool1 <- norm1
I0917 22:17:10.583825 68176 net.cpp:338] pool1 -> pool1
I0917 22:17:10.583835 68176 net.cpp:113] Setting up pool1
I0917 22:17:10.583914 68176 net.cpp:120] Top shape: 50 96 37 37 (6571200)
I0917 22:17:10.583925 68176 layer_factory.hpp:74] Creating layer conv2
I0917 22:17:10.583938 68176 net.cpp:84] Creating Layer conv2
I0917 22:17:10.583945 68176 net.cpp:380] conv2 <- pool1
I0917 22:17:10.583955 68176 net.cpp:338] conv2 -> conv2
I0917 22:17:10.583966 68176 net.cpp:113] Setting up conv2
I0917 22:17:10.604285 68176 net.cpp:120] Top shape: 50 256 33 33 (13939200)
I0917 22:17:10.604321 68176 layer_factory.hpp:74] Creating layer relu2
I0917 22:17:10.604331 68176 net.cpp:84] Creating Layer relu2
I0917 22:17:10.604338 68176 net.cpp:380] relu2 <- conv2
I0917 22:17:10.604347 68176 net.cpp:327] relu2 -> conv2 (in-place)
I0917 22:17:10.604357 68176 net.cpp:113] Setting up relu2
I0917 22:17:10.604423 68176 net.cpp:120] Top shape: 50 256 33 33 (13939200)
I0917 22:17:10.604434 68176 layer_factory.hpp:74] Creating layer pool2
I0917 22:17:10.604444 68176 net.cpp:84] Creating Layer pool2
I0917 22:17:10.604451 68176 net.cpp:380] pool2 <- conv2
I0917 22:17:10.604460 68176 net.cpp:338] pool2 -> pool2
I0917 22:17:10.604470 68176 net.cpp:113] Setting up pool2
I0917 22:17:10.604619 68176 net.cpp:120] Top shape: 50 256 17 17 (3699200)
I0917 22:17:10.604632 68176 layer_factory.hpp:74] Creating layer conv3
I0917 22:17:10.604645 68176 net.cpp:84] Creating Layer conv3
I0917 22:17:10.604652 68176 net.cpp:380] conv3 <- pool2
I0917 22:17:10.604662 68176 net.cpp:338] conv3 -> conv3
I0917 22:17:10.604673 68176 net.cpp:113] Setting up conv3
I0917 22:17:10.644184 68176 net.cpp:120] Top shape: 50 512 17 17 (7398400)
I0917 22:17:10.644224 68176 layer_factory.hpp:74] Creating layer relu3
I0917 22:17:10.644238 68176 net.cpp:84] Creating Layer relu3
I0917 22:17:10.644245 68176 net.cpp:380] relu3 <- conv3
I0917 22:17:10.644259 68176 net.cpp:327] relu3 -> conv3 (in-place)
I0917 22:17:10.644270 68176 net.cpp:113] Setting up relu3
I0917 22:17:10.644327 68176 net.cpp:120] Top shape: 50 512 17 17 (7398400)
I0917 22:17:10.644338 68176 layer_factory.hpp:74] Creating layer conv4
I0917 22:17:10.644352 68176 net.cpp:84] Creating Layer conv4
I0917 22:17:10.644359 68176 net.cpp:380] conv4 <- conv3
I0917 22:17:10.644371 68176 net.cpp:338] conv4 -> conv4
I0917 22:17:10.644384 68176 net.cpp:113] Setting up conv4
I0917 22:17:10.721978 68176 net.cpp:120] Top shape: 50 512 17 17 (7398400)
I0917 22:17:10.722025 68176 layer_factory.hpp:74] Creating layer relu4
I0917 22:17:10.722044 68176 net.cpp:84] Creating Layer relu4
I0917 22:17:10.722054 68176 net.cpp:380] relu4 <- conv4
I0917 22:17:10.722065 68176 net.cpp:327] relu4 -> conv4 (in-place)
I0917 22:17:10.722077 68176 net.cpp:113] Setting up relu4
I0917 22:17:10.722158 68176 net.cpp:120] Top shape: 50 512 17 17 (7398400)
I0917 22:17:10.722170 68176 layer_factory.hpp:74] Creating layer conv5
I0917 22:17:10.722187 68176 net.cpp:84] Creating Layer conv5
I0917 22:17:10.722194 68176 net.cpp:380] conv5 <- conv4
I0917 22:17:10.722204 68176 net.cpp:338] conv5 -> conv5
I0917 22:17:10.722216 68176 net.cpp:113] Setting up conv5
I0917 22:17:10.799247 68176 net.cpp:120] Top shape: 50 512 17 17 (7398400)
I0917 22:17:10.799302 68176 layer_factory.hpp:74] Creating layer relu5
I0917 22:17:10.799320 68176 net.cpp:84] Creating Layer relu5
I0917 22:17:10.799329 68176 net.cpp:380] relu5 <- conv5
I0917 22:17:10.799340 68176 net.cpp:327] relu5 -> conv5 (in-place)
I0917 22:17:10.799351 68176 net.cpp:113] Setting up relu5
I0917 22:17:10.799410 68176 net.cpp:120] Top shape: 50 512 17 17 (7398400)
I0917 22:17:10.799419 68176 layer_factory.hpp:74] Creating layer pool5
I0917 22:17:10.799439 68176 net.cpp:84] Creating Layer pool5
I0917 22:17:10.799446 68176 net.cpp:380] pool5 <- conv5
I0917 22:17:10.799455 68176 net.cpp:338] pool5 -> pool5
I0917 22:17:10.799471 68176 net.cpp:113] Setting up pool5
I0917 22:17:10.799625 68176 net.cpp:120] Top shape: 50 512 6 6 (921600)
I0917 22:17:10.799638 68176 layer_factory.hpp:74] Creating layer fc6
I0917 22:17:10.799657 68176 net.cpp:84] Creating Layer fc6
I0917 22:17:10.799664 68176 net.cpp:380] fc6 <- pool5
I0917 22:17:10.799674 68176 net.cpp:338] fc6 -> fc6
I0917 22:17:10.799685 68176 net.cpp:113] Setting up fc6
I0917 22:17:10.902820 68176 net.cpp:120] Top shape: 50 4096 (204800)
I0917 22:17:10.902878 68176 layer_factory.hpp:74] Creating layer relu6
I0917 22:17:10.902899 68176 net.cpp:84] Creating Layer relu6
I0917 22:17:10.902909 68176 net.cpp:380] relu6 <- fc6
I0917 22:17:10.902940 68176 net.cpp:327] relu6 -> fc6 (in-place)
I0917 22:17:10.902952 68176 net.cpp:113] Setting up relu6
I0917 22:17:10.903081 68176 net.cpp:120] Top shape: 50 4096 (204800)
I0917 22:17:10.903092 68176 layer_factory.hpp:74] Creating layer drop6
I0917 22:17:10.903110 68176 net.cpp:84] Creating Layer drop6
I0917 22:17:10.903117 68176 net.cpp:380] drop6 <- fc6
I0917 22:17:10.903126 68176 net.cpp:327] drop6 -> fc6 (in-place)
I0917 22:17:10.903134 68176 net.cpp:113] Setting up drop6
I0917 22:17:10.903151 68176 net.cpp:120] Top shape: 50 4096 (204800)
I0917 22:17:10.903158 68176 layer_factory.hpp:74] Creating layer fc7
I0917 22:17:10.903169 68176 net.cpp:84] Creating Layer fc7
I0917 22:17:10.903175 68176 net.cpp:380] fc7 <- fc6
I0917 22:17:10.903192 68176 net.cpp:338] fc7 -> fc7
I0917 22:17:10.903203 68176 net.cpp:113] Setting up fc7
I0917 22:17:10.927484 68176 net.cpp:120] Top shape: 50 4096 (204800)
I0917 22:17:10.927541 68176 layer_factory.hpp:74] Creating layer relu7
I0917 22:17:10.927558 68176 net.cpp:84] Creating Layer relu7
I0917 22:17:10.927568 68176 net.cpp:380] relu7 <- fc7
I0917 22:17:10.927579 68176 net.cpp:327] relu7 -> fc7 (in-place)
I0917 22:17:10.927592 68176 net.cpp:113] Setting up relu7
I0917 22:17:10.927711 68176 net.cpp:120] Top shape: 50 4096 (204800)
I0917 22:17:10.927719 68176 layer_factory.hpp:74] Creating layer drop7
I0917 22:17:10.927731 68176 net.cpp:84] Creating Layer drop7
I0917 22:17:10.927737 68176 net.cpp:380] drop7 <- fc7
I0917 22:17:10.927749 68176 net.cpp:327] drop7 -> fc7 (in-place)
I0917 22:17:10.927758 68176 net.cpp:113] Setting up drop7
I0917 22:17:10.927767 68176 net.cpp:120] Top shape: 50 4096 (204800)
I0917 22:17:10.927774 68176 layer_factory.hpp:74] Creating layer fc8_oxford102
I0917 22:17:10.927786 68176 net.cpp:84] Creating Layer fc8_oxford102
I0917 22:17:10.927793 68176 net.cpp:380] fc8_oxford102 <- fc7
I0917 22:17:10.927804 68176 net.cpp:338] fc8_oxford102 -> fc8_oxford102
I0917 22:17:10.927816 68176 net.cpp:113] Setting up fc8_oxford102
I0917 22:17:10.941622 68176 net.cpp:120] Top shape: 50 102 (5100)
I0917 22:17:10.941638 68176 layer_factory.hpp:74] Creating layer loss
I0917 22:17:10.941658 68176 net.cpp:84] Creating Layer loss
I0917 22:17:10.941664 68176 net.cpp:380] loss <- fc8_oxford102
I0917 22:17:10.941673 68176 net.cpp:380] loss <- label
I0917 22:17:10.941687 68176 net.cpp:338] loss -> (automatic)
I0917 22:17:10.941696 68176 net.cpp:113] Setting up loss
I0917 22:17:10.941709 68176 layer_factory.hpp:74] Creating layer loss
…
I0917 22:17:10.943018 68176 net.cpp:257] The NetState phase (1) differed from the phase (0) specified by a rule in layer data
I0917 22:17:10.943234 68176 net.cpp:42] Initializing net from parameters: 
name: "Oxford102_VGG_CNN_S"
state {
  phase: TEST
}
layer {
  name: "data"
  type: "ImageData"
  top: "data"
  top: "label"
  include {
    phase: TEST
  }
  transform_param {
    mirror: false
    crop_size: 224
    mean_file: "/home/ubuntu/caffe/data/ilsvrc12/imagenet_mean.binaryproto"
  }
  image_data_param {
    source: "/home/ubuntu/git/caffe-oxford102/test.txt"
    batch_size: 50
    new_height: 256
    new_width: 256
  }
}
layer {
  name: "conv1"
  type: "Convolution"
  bottom: "data"
  top: "conv1"
  param {
    lr_mult: 1
    decay_mult: 1
  }
  param {
    lr_mult: 2
    decay_mult: 0
  }
  convolution_param {
    num_output: 96
    kernel_size: 7
    stride: 2
    weight_filler {
      type: "gaussian"
      std: 0.01
    }
    bias_filler {
      type: "constant"
      value: 0
    }
  }
}
layer {
  name: "relu1"
  type: "ReLU"
  bottom: "conv1"
  top: "conv1"
}
layer {
  name: "norm1"
  type: "LRN"
  bottom: "conv1"
  top: "norm1"
  lrn_param {
    local_size: 5
    alpha: 0.0005
    beta: 0.75
    k: 2
  }
}
layer {
  name: "pool1"
  type: "Pooling"
  bottom: "norm1"
  top: "pool1"
  pooling_param {
    pool: MAX
    kernel_size: 3
    stride: 3
  }
}
layer {
  name: "conv2"
  type: "Convolution"
  bottom: "pool1"
  top: "conv2"
  param {
    lr_mult: 1
    decay_mult: 1
  }
  param {
    lr_mult: 2
    decay_mult: 0
  }
  convolution_param {
    num_output: 256
    kernel_size: 5
    weight_filler {
      type: "gaussian"
      std: 0.01
    }
    bias_filler {
      type: "constant"
      value: 1
    }
  }
}
layer {
  name: "relu2"
  type: "ReLU"
  bottom: "conv2"
  top: "conv2"
}
layer {
  name: "pool2"
  type: "Pooling"
  bottom: "conv2"
  top: "pool2"
  pooling_param {
    pool: MAX
    kernel_size: 2
    stride: 2
  }
}
layer {
  name: "conv3"
  type: "Convolution"
  bottom: "pool2"
  top: "conv3"
  param {
    lr_mult: 1
    decay_mult: 1
  }
  param {
    lr_mult: 2
    decay_mult: 0
  }
  convolution_param {
    num_output: 512
    pad: 1
    kernel_size: 3
    weight_filler {
      type: "gaussian"
      std: 0.01
    }
    bias_filler {
      type: "constant"
      value: 1
    }
  }
}
layer {
  name: "relu3"
  type: "ReLU"
  bottom: "conv3"
  top: "conv3"
}
layer {
  name: "conv4"
  type: "Convolution"
  bottom: "conv3"
  top: "conv4"
  param {
    lr_mult: 1
    decay_mult: 1
  }
  param {
    lr_mult: 2
    decay_mult: 0
  }
  convolution_param {
    num_output: 512
    pad: 1
    kernel_size: 3
    weight_filler {
      type: "gaussian"
      std: 0.01
    }
    bias_filler {
      type: "constant"
      value: 1
    }
  }
}
layer {
  name: "relu4"
  type: "ReLU"
  bottom: "conv4"
  top: "conv4"
}
layer {
  name: "conv5"
  type: "Convolution"
  bottom: "conv4"
  top: "conv5"
  param {
    lr_mult: 1
    decay_mult: 1
  }
  param {
    lr_mult: 2
    decay_mult: 0
  }
  convolution_param {
    num_output: 512
    pad: 1
    kernel_size: 3
    weight_filler {
      type: "gaussian"
      std: 0.005
    }
    bias_filler {
      type: "constant"
      value: 1
    }
  }
}
layer {
  name: "relu5"
  type: "ReLU"
  bottom: "conv5"
  top: "conv5"
}
layer {
  name: "pool5"
  type: "Pooling"
  bottom: "conv5"
  top: "pool5"
  pooling_param {
    pool: MAX
    kernel_size: 3
    stride: 3
  }
}
layer {
  name: "fc6"
  type: "InnerProduct"
  bottom: "pool5"
  top: "fc6"
  inner_product_param {
    num_output: 4096
  }
}
layer {
  name: "relu6"
  type: "ReLU"
  bottom: "fc6"
  top: "fc6"
}
layer {
  name: "drop6"
  type: "Dropout"
  bottom: "fc6"
  top: "fc6"
  dropout_param {
    dropout_ratio: 0.5
  }
}
layer {
  name: "fc7"
  type: "InnerProduct"
  bottom: "fc6"
  top: "fc7"
  inner_product_param {
    num_output: 4096
  }
}
layer {
  name: "relu7"
  type: "ReLU"
  bottom: "fc7"
  top: "fc7"
}
layer {
  name: "drop7"
  type: "Dropout"
  bottom: "fc7"
  top: "fc7"
  dropout_param {
    dropout_ratio: 0.5
  }
}
layer {
  name: "fc8_oxford102"
  type: "InnerProduct"
  bottom: "fc7"
  top: "fc8_oxford102"
  param {
    lr_mult: 10
    decay_mult: 1
  }
  param {
    lr_mult: 20
    decay_mult: 0
  }
  inner_product_param {
    num_output: 102
    weight_filler {
      type: "gaussian"
      std: 0.01
    }
    bias_filler {
      type: "constant"
      value: 0
    }
  }
}
layer {
  name: "loss"
  type: "SoftmaxWithLoss"
  bottom: "fc8_oxford102"
  bottom: "label"
}
layer {
  name: "accuracy"
  type: "Accuracy"
  bottom: "fc8_oxford102"
  bottom: "label"
  top: "accuracy"
  include {
    phase: TEST
  }
}
I0917 22:17:10.943378 68176 layer_factory.hpp:74] Creating layer data
I0917 22:17:10.943397 68176 net.cpp:84] Creating Layer data
I0917 22:17:10.943405 68176 net.cpp:338] data -> data
I0917 22:17:10.943418 68176 net.cpp:338] data -> label
I0917 22:17:10.943428 68176 net.cpp:113] Setting up data
I0917 22:17:10.943435 68176 image_data_layer.cpp:36] Opening file /home/ubuntu/git/caffe-oxford102/test.txt
I0917 22:17:10.946424 68176 image_data_layer.cpp:51] A total of 6149 images.
I0917 22:17:10.950989 68176 image_data_layer.cpp:80] output data size: 50,3,224,224
I0917 22:17:10.951014 68176 data_transformer.cpp:22] Loading mean file from: /home/ubuntu/caffe/data/ilsvrc12/imagenet_mean.binaryproto
I0917 22:17:10.959806 68176 net.cpp:120] Top shape: 50 3 224 224 (7526400)
I0917 22:17:10.959852 68176 net.cpp:120] Top shape: 50 (50)
I0917 22:17:10.959866 68176 layer_factory.hpp:74] Creating layer label_data_1_split
I0917 22:17:10.959885 68176 net.cpp:84] Creating Layer label_data_1_split
I0917 22:17:10.959893 68176 net.cpp:380] label_data_1_split <- label
I0917 22:17:10.959906 68176 net.cpp:338] label_data_1_split -> label_data_1_split_0
I0917 22:17:10.959923 68176 net.cpp:338] label_data_1_split -> label_data_1_split_1
I0917 22:17:10.959931 68176 net.cpp:113] Setting up label_data_1_split
I0917 22:17:10.959995 68176 net.cpp:120] Top shape: 50 (50)
I0917 22:17:10.960006 68176 net.cpp:120] Top shape: 50 (50)
I0917 22:17:10.960014 68176 layer_factory.hpp:74] Creating layer conv1
I0917 22:17:10.960031 68176 net.cpp:84] Creating Layer conv1
I0917 22:17:10.960038 68176 net.cpp:380] conv1 <- data
I0917 22:17:10.960049 68176 net.cpp:338] conv1 -> conv1
I0917 22:17:10.960062 68176 net.cpp:113] Setting up conv1
I0917 22:17:10.960945 68176 net.cpp:120] Top shape: 50 96 109 109 (57028800)
I0917 22:17:10.960966 68176 layer_factory.hpp:74] Creating layer relu1
I0917 22:17:10.960978 68176 net.cpp:84] Creating Layer relu1
I0917 22:17:10.960985 68176 net.cpp:380] relu1 <- conv1
I0917 22:17:10.960994 68176 net.cpp:327] relu1 -> conv1 (in-place)
I0917 22:17:10.961004 68176 net.cpp:113] Setting up relu1
I0917 22:17:10.961151 68176 net.cpp:120] Top shape: 50 96 109 109 (57028800)
I0917 22:17:10.961164 68176 layer_factory.hpp:74] Creating layer norm1
I0917 22:17:10.961179 68176 net.cpp:84] Creating Layer norm1
I0917 22:17:10.961185 68176 net.cpp:380] norm1 <- conv1
I0917 22:17:10.961194 68176 net.cpp:338] norm1 -> norm1
I0917 22:17:10.961205 68176 net.cpp:113] Setting up norm1
I0917 22:17:10.961215 68176 net.cpp:120] Top shape: 50 96 109 109 (57028800)
I0917 22:17:10.961221 68176 layer_factory.hpp:74] Creating layer pool1
I0917 22:17:10.961247 68176 net.cpp:84] Creating Layer pool1
I0917 22:17:10.961266 68176 net.cpp:380] pool1 <- norm1
I0917 22:17:10.961274 68176 net.cpp:338] pool1 -> pool1
I0917 22:17:10.961283 68176 net.cpp:113] Setting up pool1
I0917 22:17:10.961344 68176 net.cpp:120] Top shape: 50 96 37 37 (6571200)
I0917 22:17:10.961352 68176 layer_factory.hpp:74] Creating layer conv2
I0917 22:17:10.961364 68176 net.cpp:84] Creating Layer conv2
I0917 22:17:10.961369 68176 net.cpp:380] conv2 <- pool1
I0917 22:17:10.961380 68176 net.cpp:338] conv2 -> conv2
I0917 22:17:10.961390 68176 net.cpp:113] Setting up conv2
I0917 22:17:10.982275 68176 net.cpp:120] Top shape: 50 256 33 33 (13939200)
I0917 22:17:10.982298 68176 layer_factory.hpp:74] Creating layer relu2
I0917 22:17:10.982311 68176 net.cpp:84] Creating Layer relu2
I0917 22:17:10.982316 68176 net.cpp:380] relu2 <- conv2
I0917 22:17:10.982326 68176 net.cpp:327] relu2 -> conv2 (in-place)
I0917 22:17:10.982334 68176 net.cpp:113] Setting up relu2
I0917 22:17:10.982388 68176 net.cpp:120] Top shape: 50 256 33 33 (13939200)
I0917 22:17:10.982398 68176 layer_factory.hpp:74] Creating layer pool2
I0917 22:17:10.982409 68176 net.cpp:84] Creating Layer pool2
I0917 22:17:10.982416 68176 net.cpp:380] pool2 <- conv2
I0917 22:17:10.982425 68176 net.cpp:338] pool2 -> pool2
I0917 22:17:10.982435 68176 net.cpp:113] Setting up pool2
I0917 22:17:10.982493 68176 net.cpp:120] Top shape: 50 256 17 17 (3699200)
I0917 22:17:10.982503 68176 layer_factory.hpp:74] Creating layer conv3
I0917 22:17:10.982516 68176 net.cpp:84] Creating Layer conv3
I0917 22:17:10.982522 68176 net.cpp:380] conv3 <- pool2
I0917 22:17:10.982532 68176 net.cpp:338] conv3 -> conv3
I0917 22:17:10.982542 68176 net.cpp:113] Setting up conv3
I0917 22:17:11.021683 68176 net.cpp:120] Top shape: 50 512 17 17 (7398400)
I0917 22:17:11.021720 68176 layer_factory.hpp:74] Creating layer relu3
I0917 22:17:11.021734 68176 net.cpp:84] Creating Layer relu3
I0917 22:17:11.021742 68176 net.cpp:380] relu3 <- conv3
I0917 22:17:11.021752 68176 net.cpp:327] relu3 -> conv3 (in-place)
I0917 22:17:11.021762 68176 net.cpp:113] Setting up relu3
I0917 22:17:11.021903 68176 net.cpp:120] Top shape: 50 512 17 17 (7398400)
I0917 22:17:11.021915 68176 layer_factory.hpp:74] Creating layer conv4
I0917 22:17:11.021929 68176 net.cpp:84] Creating Layer conv4
I0917 22:17:11.021936 68176 net.cpp:380] conv4 <- conv3
I0917 22:17:11.021946 68176 net.cpp:338] conv4 -> conv4
I0917 22:17:11.021957 68176 net.cpp:113] Setting up conv4
I0917 22:17:11.099406 68176 net.cpp:120] Top shape: 50 512 17 17 (7398400)
I0917 22:17:11.099453 68176 layer_factory.hpp:74] Creating layer relu4
I0917 22:17:11.099472 68176 net.cpp:84] Creating Layer relu4
I0917 22:17:11.099479 68176 net.cpp:380] relu4 <- conv4
I0917 22:17:11.099491 68176 net.cpp:327] relu4 -> conv4 (in-place)
I0917 22:17:11.099503 68176 net.cpp:113] Setting up relu4
I0917 22:17:11.099562 68176 net.cpp:120] Top shape: 50 512 17 17 (7398400)
I0917 22:17:11.099572 68176 layer_factory.hpp:74] Creating layer conv5
I0917 22:17:11.099586 68176 net.cpp:84] Creating Layer conv5
I0917 22:17:11.099593 68176 net.cpp:380] conv5 <- conv4
I0917 22:17:11.099604 68176 net.cpp:338] conv5 -> conv5
I0917 22:17:11.099616 68176 net.cpp:113] Setting up conv5
I0917 22:17:11.177794 68176 net.cpp:120] Top shape: 50 512 17 17 (7398400)
I0917 22:17:11.177848 68176 layer_factory.hpp:74] Creating layer relu5
I0917 22:17:11.177866 68176 net.cpp:84] Creating Layer relu5
I0917 22:17:11.177875 68176 net.cpp:380] relu5 <- conv5
I0917 22:17:11.177887 68176 net.cpp:327] relu5 -> conv5 (in-place)
I0917 22:17:11.177899 68176 net.cpp:113] Setting up relu5
I0917 22:17:11.177953 68176 net.cpp:120] Top shape: 50 512 17 17 (7398400)
I0917 22:17:11.177963 68176 layer_factory.hpp:74] Creating layer pool5
I0917 22:17:11.177975 68176 net.cpp:84] Creating Layer pool5
I0917 22:17:11.177983 68176 net.cpp:380] pool5 <- conv5
I0917 22:17:11.177991 68176 net.cpp:338] pool5 -> pool5
I0917 22:17:11.178002 68176 net.cpp:113] Setting up pool5
I0917 22:17:11.178194 68176 net.cpp:120] Top shape: 50 512 6 6 (921600)
I0917 22:17:11.178210 68176 layer_factory.hpp:74] Creating layer fc6
I0917 22:17:11.178238 68176 net.cpp:84] Creating Layer fc6
I0917 22:17:11.178246 68176 net.cpp:380] fc6 <- pool5
I0917 22:17:11.178256 68176 net.cpp:338] fc6 -> fc6
I0917 22:17:11.178267 68176 net.cpp:113] Setting up fc6
I0917 22:17:11.282719 68176 net.cpp:120] Top shape: 50 4096 (204800)
I0917 22:17:11.282788 68176 layer_factory.hpp:74] Creating layer relu6
I0917 22:17:11.282807 68176 net.cpp:84] Creating Layer relu6
I0917 22:17:11.282817 68176 net.cpp:380] relu6 <- fc6
I0917 22:17:11.282831 68176 net.cpp:327] relu6 -> fc6 (in-place)
I0917 22:17:11.282845 68176 net.cpp:113] Setting up relu6
I0917 22:17:11.282965 68176 net.cpp:120] Top shape: 50 4096 (204800)
I0917 22:17:11.282975 68176 layer_factory.hpp:74] Creating layer drop6
I0917 22:17:11.282987 68176 net.cpp:84] Creating Layer drop6
I0917 22:17:11.282994 68176 net.cpp:380] drop6 <- fc6
I0917 22:17:11.283002 68176 net.cpp:327] drop6 -> fc6 (in-place)
I0917 22:17:11.283011 68176 net.cpp:113] Setting up drop6
I0917 22:17:11.283021 68176 net.cpp:120] Top shape: 50 4096 (204800)
I0917 22:17:11.283027 68176 layer_factory.hpp:74] Creating layer fc7
I0917 22:17:11.283037 68176 net.cpp:84] Creating Layer fc7
I0917 22:17:11.283043 68176 net.cpp:380] fc7 <- fc6
I0917 22:17:11.283052 68176 net.cpp:338] fc7 -> fc7
I0917 22:17:11.283063 68176 net.cpp:113] Setting up fc7
I0917 22:17:11.307953 68176 net.cpp:120] Top shape: 50 4096 (204800)
I0917 22:17:11.308018 68176 layer_factory.hpp:74] Creating layer relu7
I0917 22:17:11.308037 68176 net.cpp:84] Creating Layer relu7
I0917 22:17:11.308046 68176 net.cpp:380] relu7 <- fc7
I0917 22:17:11.308058 68176 net.cpp:327] relu7 -> fc7 (in-place)
I0917 22:17:11.308070 68176 net.cpp:113] Setting up relu7
I0917 22:17:11.308184 68176 net.cpp:120] Top shape: 50 4096 (204800)
I0917 22:17:11.308194 68176 layer_factory.hpp:74] Creating layer drop7
I0917 22:17:11.308205 68176 net.cpp:84] Creating Layer drop7
I0917 22:17:11.308212 68176 net.cpp:380] drop7 <- fc7
I0917 22:17:11.308221 68176 net.cpp:327] drop7 -> fc7 (in-place)
I0917 22:17:11.308230 68176 net.cpp:113] Setting up drop7
I0917 22:17:11.308239 68176 net.cpp:120] Top shape: 50 4096 (204800)
I0917 22:17:11.308245 68176 layer_factory.hpp:74] Creating layer fc8_oxford102
I0917 22:17:11.308259 68176 net.cpp:84] Creating Layer fc8_oxford102
I0917 22:17:11.308264 68176 net.cpp:380] fc8_oxford102 <- fc7
I0917 22:17:11.308274 68176 net.cpp:338] fc8_oxford102 -> fc8_oxford102
I0917 22:17:11.308286 68176 net.cpp:113] Setting up fc8_oxford102
I0917 22:17:11.322038 68176 net.cpp:120] Top shape: 50 102 (5100)
I0917 22:17:11.322062 68176 layer_factory.hpp:74] Creating layer fc8_oxford102_fc8_oxford102_0_split
I0917 22:17:11.322074 68176 net.cpp:84] Creating Layer fc8_oxford102_fc8_oxford102_0_split
I0917 22:17:11.322082 68176 net.cpp:380] fc8_oxford102_fc8_oxford102_0_split <- fc8_oxford102
I0917 22:17:11.322091 68176 net.cpp:338] fc8_oxford102_fc8_oxford102_0_split -> fc8_oxford102_fc8_oxford102_0_split_0
I0917 22:17:11.322106 68176 net.cpp:338] fc8_oxford102_fc8_oxford102_0_split -> fc8_oxford102_fc8_oxford102_0_split_1
I0917 22:17:11.322115 68176 net.cpp:113] Setting up fc8_oxford102_fc8_oxford102_0_split
I0917 22:17:11.322151 68176 net.cpp:120] Top shape: 50 102 (5100)
I0917 22:17:11.322162 68176 net.cpp:120] Top shape: 50 102 (5100)
I0917 22:17:11.322168 68176 layer_factory.hpp:74] Creating layer loss
I0917 22:17:11.322181 68176 net.cpp:84] Creating Layer loss
I0917 22:17:11.322188 68176 net.cpp:380] loss <- fc8_oxford102_fc8_oxford102_0_split_0
I0917 22:17:11.322206 68176 net.cpp:380] loss <- label_data_1_split_0
I0917 22:17:11.322216 68176 net.cpp:338] loss -> (automatic)
I0917 22:17:11.322224 68176 net.cpp:113] Setting up loss
…
